data/default/POS.pt (torch, 312551 bytes, 20 tensors)

layer_1.weight f4 [256, 122]
0	0x3c7a74c8	0.015286632
1	0x3d529378	0.05141017
2	0xbdaa130c	-0.08304414
3	0xbdb06442	-0.08612873
4	0xbd881984	-0.06645492
5	0xbd079b78	-0.03310725
6	0x3da16050	0.07879698
7	0xbb23b520	-0.0024979785
8	0x3d545148	0.05183533
9	0xbcb1c758	-0.0217015
10	0xbd9b74b5	-0.075906195
11	0xbd92a3ee	-0.07160173
12	0x3d9f3d08	0.07775313
13	0xbd823c88	-0.06359202
14	0xbda7d7e1	-0.081954725
15	0xbc2233c8	-0.009900041
16	0x3d6076ec	0.054800913
17	0x3daa8814	0.08326736
18	0xbce76a5c	-0.028248958
19	0xbd096289	-0.033541236
20	0x3d1d8d88	0.038465053
21	0x3d0e2c08	0.03470996
22	0x3c016e98	0.007899903
23	0xbcec15a2	-0.02881891
24	0x3d623c18	0.05523309
25	0xbd6ba8db	-0.05753408
26	0xbd2fa8b2	-0.04288549
27	0x3d435aec	0.04769413
28	0xbd57f5ad	-0.05272453
29	0x3d51fc88	0.051266223
30	0xbd9e4616	-0.077282116
31	0x3c85d9c4	0.01633919
32	0x3d74b624	0.059744015
33	0xbda812c4	-0.08206704
34	0xbc58a0e8	-0.013221957
35	0x3b6389a0	0.0034719482
36	0xbd2bdbea	-0.041957773
37	0x3d1cb924	0.0382625
38	0x3d873f46	0.06603865
39	0x3dab09d2	0.083514825
40	0xbbecd650	-0.0072276965
41	0x3dab6074	0.08368006
42	0x3c969a08	0.018383995
43	0xbd05fc9c	-0.03271161
44	0xbcb378fc	-0.021908276
45	0x3cc9533c	0.024575822
46	0xbd8952ba	-0.06705232
47	0xbd9e9abe	-0.077443585
48	0x3da22174	0.07916537
49	0xbc88b8c8	-0.016689673
50	0x3d7993e4	0.060932055
51	0xbd9b41be	-0.07580899
52	0xbd4557fa	-0.048179604
53	0x3da8ffae	0.08251892
54	0x3db0484a	0.08607538
55	0x3c6901c0	0.014221609
56	0x3d8d690e	0.06904803
57	0xbdab58fb	-0.08366581
58	0xbd771684	-0.060324207
59	0x3d9db23a	0.0770001
60	0xbd175c36	-0.036953174
61	0xbc485020	-0.012226135
62	0xbda9a4a6	-0.08283357
63	0xbda5b170	-0.08090484
64	0x3c872904	0.01649905
65	0x3d8e4b18	0.06947917
66	0x3c9b74c0	0.01897657
67	0x3d4b36b4	0.049612716
68	0x3d2f2f9c	0.042770013
69	0xbdb4099d	-0.08790896
70	0x3d2cd91c	0.04219924
71	0x3d5ae8b4	0.05344458
72	0xbd564759	-0.052314136
73	0xbd9d082e	-0.07667576
74	0xbd77343a	-0.06035254
75	0x3d479e54	0.048734978
76	0xbd926f79	-0.07150168
77	0x3d2600c4	0.040528074
78	0x3dae2daa	0.085048035
79	0xbc939534	-0.018015482
80	0xbcb58114	-0.022156276
81	0xbd3bf2df	-0.045885917
82	0x3d1626b4	0.036658004
83	0xbd7f648f	-0.06235176
84	0x3c351c08	0.011054046
85	0x3ab7c700	0.0014021099
86	0x3d63bc20	0.05559933
87	0xbdac6fc8	-0.08419758
88	0x3d7e8c08	0.062145263
89	0x3d1d03c0	0.038333654
90	0xbd0d88e4	-0.034554377
91	0x3cb61c28	0.022230223
92	0x3da5cf22	0.08096148
93	0xbd328980	-0.04358816
94	0x3ca8b960	0.020596206
95	0xbda21991	-0.07915033
96	0x39e60200	0.0004387051
97	0x3d898000	0.06713867
98	0xbd32841d	-0.043583024
99	0xbb63da00	-0.003476739
100	0xbdad6007	-0.084655814
101	0xbc8ee764	-0.01744432
102	0x3da9a886	0.082840964
103	0xbd810356	-0.062994644
104	0xbda9c214	-0.082889706
105	0xbd94b15a	-0.072603896
106	0xbd9541a9	-0.07287914
107	0x3d9229be	0.07136868
108	0xbc9a0730	-0.018802255
109	0x3db836d6	0.08994834
110	0x3d66f958	0.056390136
111	0xbc42ac20	-0.011881858
112	0x3da50d50	0.0805918
113	0xbd8d83e1	-0.069099195
114	0xbdb16441	-0.086617
115	0x3d4dd068	0.05024758
116	0xbd89669e	-0.06709026
117	0xbd389815	-0.04506691
118	0x3c66e238	0.014092021
119	0x3d99461c	0.074840754
120	0xbda4287c	-0.08015534
121	0x3d84bc0e	0.06481181
122	0xbc9644c8	-0.018343344
123	0xbd6a607c	-0.05722092
124	0xbdb057f7	-0.08610528
125	0x3d9ef3e6	0.07761364
126	0x3d1dc98c	0.03852229
127	0x3ce569a0	0.028004467
128	0xbd70cc83	-0.058788788
129	0xbd1545bc	-0.036443457
130	0x3d50776c	0.05089514
131	0xbcbc6120	-0.022995532
132	0xbdaf481b	-0.08558675
133	0xbccca000	-0.024978638
134	0xbc700c48	-0.014651366
135	0x3d9f2ef0	0.077726245
136	0x3dac84a4	0.08423737
137	0x3b9be8f0	0.004757993
138	0x3d328678	0.04358527
139	0x3d812d80	0.063075066
140	0x3cc05ef0	0.02348277
141	0x3da7dc04	0.081962615
142	0xbdb6c35b	-0.0892398
143	0x3d9340c8	0.071900904
144	0xbd8fa12e	-0.070131645
145	0xbc63b408	-0.013897903
146	0xbd68f8c3	-0.056877863
147	0x3d10fde8	0.035398394
148	0xbce21a44	-0.027600415
149	0x3d29bfb8	0.041442603
150	0xbcae41b4	-0.021271564
151	0x3d386968	0.0450224
152	0x3da3541c	0.07975027
153	0xbbaa3850	-0.0051947013
154	0x3ccd6938	0.025074586
155	0x3cd89014	0.02643589
156	0xbcb822ec	-0.02247759
157	0x3d8a237c	0.06745049
158	0x3c9e7a5c	0.019345455
159	0xbbe34e50	-0.006936826
160	0xbcd7c17c	-0.026337378
161	0xbc2905c8	-0.01031632
162	0xbd951cc0	-0.07280874
163	0x3d92f8c6	0.07176356
164	0x3d91ce5c	0.07119438
165	0xbd879d78	-0.06621832
166	0xbd8c7604	-0.06858447
167	0x3d601618	0.05470857
168	0x3dad1dee	0.08452974
169	0x3c63c8a8	0.013902821
170	0xbdb414d9	-0.08793039
171	0x3cf6d544	0.03013099
172	0x3d5ca8ac	0.053871796
173	0xbd9f15d2	-0.07767834
174	0xbd7aff3c	-0.061278567
175	0x3d508ef8	0.050917596
176	0x3d053d10	0.032528937
177	0xbd938224	-0.07202557
178	0xbabe53c0	-0.0014520809
179	0x3d5f7a10	0.054559767
180	0xbd84a4e0	-0.0647676
181	0x3d783b6c	0.060603544
182	0xbc891e50	-0.016738087
183	0xbd58fd54	-0.052975968
184	0x3d9f02e8	0.07764226
185	0x3d859f88	0.06524569
186	0xbcb13c78	-0.021635279
187	0x3d818f62	0.06326176
188	0x3cad4cac	0.021154724
189	0xbc200280	-0.009766221
190	0xbdadac31	-0.084801085
191	0x3ce16d4c	0.027517937
192	0xbc27d468	-0.010243513
193	0xbd1dc6c8	-0.03851965
194	0xbbf35fb0	-0.0074271783
195	0x3cd5bb08	0.02609016
196	0x3c950b0c	0.018193744
197	0xbb35b420	-0.002772577
198	0xbc102560	-0.008797973
199	0xbd597210	-0.053087294
200	0x3b6aafc0	0.0035810322
201	0xbc129f68	-0.008949138
202	0x3dad32dc	0.08456966
203	0xbd8f9af9	-0.070119806
204	0xbd293a65	-0.041315455
205	0xbcbe0d30	-0.023199648
206	0xbca2de28	-0.019881323
207	0xbcc1abc4	-0.023641475
208	0xbd9ff3b0	-0.078101516
209	0xbc38a790	-0.011270419
210	0xbc9a1ba8	-0.018812016
211	0x3d9be178	0.07611364
212	0xbd804907	-0.06263929
213	0x3d52b664	0.051443473
214	0xbd20f2fd	-0.03929423
215	0xbd8ddca9	-0.06926853
216	0x3d9efeea	0.07763465
217	0x3d8b7df0	0.0681113
218	0x3d30c2d4	0.043154553
219	0xbbce7d90	-0.0063015893
220	0xbd7da99c	-0.06192933
221	0x3da20e7a	0.079129174
222	0x3bd1cae0	0.0064023584
223	0x3d19f3c4	0.03758599
224	0x3d52f3d8	0.05150208
225	0x3ceb8418	0.02874951
226	0x39d0bf00	0.00039815158
227	0xbd9bf64f	-0.07615339
228	0x3da50b66	0.08058815
229	0x3da31ca8	0.0796445
230	0x3d8bb2ee	0.068212375
231	0x3da8619a	0.08221741
232	0xbda5e2dc	-0.080999106
233	0x3d24f1d4	0.040269688
234	0xbc467aa8	-0.0121142045
235	0x3c3d2648	0.0115447715
236	0xbd3a446e	-0.045475416
237	0x3bdaf730	0.006682299
238	0xbc1e9df8	-0.009681217
239	0x3d46025c	0.048342094
240	0xbd1cdc45	-0.038296003
241	0xbd5daf7c	-0.054122433
242	0x3c50a9a0	0.012735754
243	0xbd9b9f86	-0.07598786
244	0xbd971e1e	-0.07378791
245	0xbc722008	-0.014778145
246	0x3ceb3438	0.028711423
247	0x3d8b64ba	0.068063214
248	0x3d95a986	0.07307725
249	0x3d67b7f0	0.0565719
250	0x3da84b46	0.08217482
251	0x3db8f310	0.090307355
252	0x3d83d95a	0.06437941
253	0xbd15f1b5	-0.036607463
254	0x3d7ee8b0	0.062233627
255	0x39cb4200	0.0003876835

layer_1.bias f4 [256]
0	0xbd573872	-0.052544065
1	0x3d318278	0.043337315
2	0xbce3519c	-0.027748875
3	0xbbba6820	-0.005688682
4	0xbcbbeffc	-0.022941582
5	0xbd836aed	-0.06416879
6	0xbd15d516	-0.036580168
7	0x3c8252b0	0.01590857
8	0xbdae22fc	-0.085027665
9	0xbcf40b1e	-0.029790457
10	0x3da3e664	0.08002928
11	0x3d8cabe4	0.06868723
12	0x3d41f788	0.047355205
13	0xbd4f9061	-0.0506748
14	0xbd53c236	-0.051698886
15	0xbd9aefa6	-0.075652406
16	0x3c771ef8	0.015083067
17	0x3db4257e	0.087962136
18	0xbda59ea2	-0.080868974
19	0xbd95c5b2	-0.07313098
20	0x3cf1e9f0	0.029530495
21	0x3d2e0dcc	0.042493626
22	0xbd93ed6d	-0.0722302
23	0xbd215988	-0.039392024
24	0x3d64257c	0.05569981
25	0xbd5b54ac	-0.053547546
26	0xbd069eba	-0.032866217
27	0xbcda3f04	-0.026641376
28	0x3d072c22	0.033001073
29	0xbd1be60f	-0.038061198
30	0x3c88017c	0.01660227
31	0xbc21f758	-0.0098856315
32	0xbdb5b97b	-0.08873268
33	0xbd621984	-0.055200115
34	0x3da9e02a	0.08294709
35	0x3d3fb01c	0.04679881
36	0x3da75722	0.08170916
37	0xbd934c60	-0.07192302
38	0xbc58edd8	-0.0132403
39	0xbda66970	-0.08125579
40	0xbd934881	-0.071915634
41	0x3cabd9f0	0.020977944
42	0xbc61b9f0	-0.013777241
43	0x3d33ecd0	0.043927014
44	0xbc3cd5a8	-0.011525549
45	0xbd8b9712	-0.06815924
46	0x3d8bd27e	0.068272576
47	0x3b144e80	0.0022629797
48	0xbdb88755	-0.090101875
49	0x3d8d7752	0.06907524
50	0xbd0c60fa	-0.03427217
51	0x3d9a7828	0.07542449
52	0x3d476944	0.048684373
53	0xbcf32610	-0.029681236
54	0x3c1fe6f8	0.009759657
55	0xbdaca5e0	-0.08430076
56	0x3d72c350	0.059268296
57	0xbb8939f0	-0.004187815
58	0x3cfd9820	0.030956328
59	0x3daf4ed4	0.08559957
60	0x3d68bbac	0.056819603
61	0x3b171fe0	0.002305977
62	0xbd489a35	-0.04897519
63	0x3c85c6f4	0.01633022
64	0x3be18aa0	0.0068829805
65	0xbdaaea77	-0.08345502
66	0xbb5b6ba0	-0.0033480898
67	0x3d54b288	0.051928073
68	0x3ba528a0	0.0050402433
69	0x3dac318e	0.08407889
70	0xbb2f94e0	-0.0026791617
71	0x3daf1bb8	0.08550209
72	0x3d734ec4	0.05940129
73	0xbba95cc0	-0.0051685274
74	0xbd79954b	-0.060933392
75	0x3d193390	0.03740269
76	0xbd3f098e	-0.04663997
77	0x3d96a458	0.07355565
78	0x3cb1badc	0.021695547
79	0x3ab594c0	0.0013853535
80	0xbd886f92	-0.06661905
81	0xbcc55d1c	-0.02409225
82	0x3d9e1c5a	0.077202514
83	0xbd9dc358	-0.077032745
84	0x3a8cf4c0	0.0010754094
85	0x3d689548	0.05678299
86	0xbcae0b9c	-0.02124577
87	0x3ba4a1c0	0.005024165
88	0x3d9a3aa0	0.07530713
89	0x3db6600c	0.08905038
90	0xbd7550f5	-0.05989166
91	0xbd8b7ce2	-0.06810929
92	0xbdac38e3	-0.08409288
93	0xbd205948	-0.039147645
94	0x3c9370b8	0.017998084
95	0xbd8966da	-0.067090705
96	0x3d72a6ac	0.059240982
97	0xb9745000	-0.00023299456
98	0xbcd81a14	-0.026379623
99	0x3d02e022	0.03195203
100	0x3ce36a50	0.027760655
101	0x3da3298c	0.07966909
102	0xbda092f4	-0.07840529
103	0xbd7affb8	-0.06127903
104	0x3daeca42	0.08534671
105	0x3d003ea4	0.03130974
106	0x3cc6f0e0	0.02428478
107	0x39f83000	0.0004733801
108	0xbbd0ebc0	-0.00637576
109	0xbd5ce73e	-0.053931467
110	0xbd68a179	-0.056794617
111	0x3d92c2ae	0.071660385
112	0x3c8fa280	0.01753354
113	0xbdaebe09	-0.0853234
114	0x3c8c817c	0.017151587
115	0x3ccecac8	0.025243178
116	0xbd8c00a0	-0.06836057
117	0x3daafa3e	0.08348511
118	0xbd824d54	-0.063624054
119	0xbd9b2c71	-0.07576836
120	0xbce7bcc4	-0.028288253
121	0x3cbe6860	0.02324313
122	0x3bbec5e0	0.0058219284
123	0xbd78d5b6	-0.060750686
124	0x3d3cbffc	0.046081528
125	0x3d08e6e0	0.033423305
126	0x3bafbdd0	0.0053632036
127	0xbb664720	-0.0035137609
128	0xbd36aff3	-0.044601392
129	0xbd946474	-0.072457224
130	0xbced0eec	-0.02893778
131	0x3dac6896	0.08418386
132	0xbc86a1b0	-0.01643452
133	0xbdb437fb	-0.0879974
134	0xbc7453e0	-0.0149125755
135	0xbd9792bc	-0.07401034
136	0x3daa5e48	0.08318764
137	0xbbb2b700	-0.005453944
138	0x3cde827c	0.02716183
139	0x3d2d13e8	0.042255312
140	0x3d07941c	0.033100232
141	0x3d96460e	0.073375806
142	0xbda6be8f	-0.08141815
143	0xbb9a7850	-0.0047140494
144	0xbd9b8245	-0.07593206
145	0xbd7e67e0	-0.06211078
146	0xbdaf4b72	-0.08559312
147	0x3b1fd7c0	0.0024390072
148	0xbd9b10a9	-0.07571537
149	0x3c00ffb8	0.007873468
150	0xbd8a879c	-0.06764147
151	0xbce025ac	-0.027361713
152	0xbd8ca386	-0.06867127
153	0x3d24c6f4	0.0402288
154	0xbd8d233a	-0.068914846
155	0x3d14f49c	0.03636609
156	0x3d0ecdec	0.03486435
157	0x3c95a0f8	0.018265232
158	0xbb857eb0	-0.00407394
159	0xbb5254e0	-0.0032094046
160	0xbd43b74c	-0.047782227
161	0x3d60999c	0.054833993
162	0x3d646484	0.05575992
163	0x3d309efc	0.04312037
164	0xbd840455	-0.06446139
165	0x3d9d5fd6	0.07684295
166	0x3d514410	0.0510903
167	0xbb3c9180	-0.0028773248
168	0x3d3b718c	0.045762584
169	0xbd07be50	-0.03314048
170	0xbd53d805	-0.051719684
171	0xbd5fc144	-0.05462767
172	0x3d5b0e38	0.053480357
173	0xbd693a61	-0.05694044
174	0xbcf93e1c	-0.030425124
175	0xbda6d3f5	-0.08145896
176	0x3d4ffa24	0.050775662
177	0x3d90a1a0	0.070620775
178	0x3b2ee680	0.0026687682
179	0x3d83fed8	0.06445092
180	0xbd64f316	-0.055895887
181	0x3c5f3880	0.0136243105
182	0xbdb47bb2	-0.088126555
183	0xbd46e632	-0.048559375
184	0x3d818e4c	0.06325969
185	0x3a228b00	0.0006200522
186	0xbd67d542	-0.056599863
187	0xbd86b394	-0.065772206
188	0xbd9152e9	-0.07095892
189	0x3bbef1d0	0.005827166
190	0x3dae3e18	0.08507937
191	0xbd5eafa7	-0.054366734
192	0xbd205207	-0.039140727
193	0xbd73e66b	-0.059545916
194	0xbd3c501a	-0.04597483
195	0x3d1e7c88	0.03869298
196	0xbd07ca04	-0.03315164
197	0x3da29fba	0.07940622
198	0xbd1f9e1f	-0.038969155
199	0xbd01c437	-0.031681266
200	0xbda6d650	-0.081463456
201	0x3d83c4d6	0.06434028
202	0xbccdf628	-0.02514179
203	0xbdb91209	-0.09036643
204	0x3c735418	0.0148515925
205	0x3c2cc488	0.010544904
206	0x3d2a9d84	0.041654125
207	0x3d92fa98	0.07176703
208	0xbd9e65ad	-0.07734237
209	0x3dab21cc	0.083560556
210	0x3c748298	0.014923714
211	0x3db0af9c	0.08627245
212	0x3dad29d8	0.08455247
213	0x3a46ad00	0.00075788796
214	0x3caee324	0.021348543
215	0x3d9ec366	0.07752113
216	0xbbcd8140	-0.0062715113
217	0x3d96b838	0.07359356
218	0xbd972437	-0.07379954
219	0xbdb11444	-0.086464435
220	0x3d583ba0	0.052791238
221	0x3dacd156	0.08438365
222	0x3da9ff12	0.08300604
223	0x3b85dd80	0.0040852427
224	0x3c5b7c10	0.013396278
225	0x3db20f82	0.08694364
226	0x3d5bb098	0.05363521
227	0xbd4d77c3	-0.05016304
228	0x3ab40e00	0.0013737082
229	0xbd839e6b	-0.064267
230	0xbcd54538	-0.026033983
231	0xbc97689c	-0.018482499
232	0xbd88b613	-0.06675353
233	0xbb9c5950	-0.004771389
234	0x3c45f9b8	0.012083463
235	0x3dab04b4	0.083505064
236	0xbd27c6e5	-0.040961165
237	0xbd8aa620	-0.06769967
238	0xbdb92b0b	-0.09041413
239	0xbd8d2c70	-0.068932414
240	0xbd0f1146	-0.034928583
241	0x3c06be20	0.00822404
242	0xbd84626a	-0.064640835
243	0xbdb90836	-0.09034769
244	0xbd978246	-0.073978946
245	0x3d822cf0	0.063562274
246	0xbdb75d74	-0.08953372
247	0xbbc84d60	-0.0061127394
248	0x3ce550e0	0.027992666
249	0xbc8e4434	-0.017366506
250	0x3d27a470	0.040928304
251	0xbd95d993	-0.073168896
252	0xbc6339c0	-0.013868749
253	0xbd564de9	-0.052320395
254	0x3d95f56c	0.07322201
255	0x3da40918	0.08009547

layer_2.weight f4 [128, 256]
0	0x3d01a27a	0.03164909
1	0xbcec2d64	-0.028830238
2	0x3d6acc90	0.057323992
3	0x3ce2d940	0.027691483
4	0x3c81bac0	0.01583612
5	0xbc28aac8	-0.010294624
6	0xbc27bb88	-0.010237582
7	0xbd467f0e	-0.048461013
8	0x3c9103c4	0.01770199
9	0x3d54383c	0.05181144
10	0xbba35880	-0.0049849153
11	0xbc967968	-0.018368438
12	0x3c0b0850	0.008485869
13	0x3d10de42	0.03536821
14	0x3d4d4908	0.050118476
15	0xbd6f82bc	-0.058474287
16	0x3d76d182	0.060258396
17	0xbc912fe0	-0.017723024
18	0xbc2c41e8	-0.01051376
19	0x3b6e54e0	0.0036366507
20	0xbd420864	-0.047371283
21	0x3d20df7e	0.03927564
22	0xbd384324	-0.044985905
23	0xbbbd2de0	-0.005773291
24	0x3d107508	0.03526786
25	0xbbe09b70	-0.006854467
26	0xbc4615c8	-0.012090154
27	0x3cf869ac	0.030323826
28	0xbd08b5ec	-0.03337662
29	0x3d4dc2a0	0.050234437
30	0x3c89703c	0.01677715
31	0xbd05089c	-0.032478914
32	0x3d32b04c	0.04362516
33	0x3be3d6b0	0.006953083
34	0xbcccf37c	-0.025018446
35	0xbcc15894	-0.023601808
36	0x3d04a3d0	0.032382786
37	0xbd7ab480	-0.061207294
38	0xbd7856b0	-0.060629547
39	0xbcdcdc2c	-0.026960455
40	0x3d4acbb8	0.049510688
41	0xbab69340	-0.0013929382
42	0xbd324ef2	-0.04353232
43	0xbcd22ff4	-0.025657631
44	0xbcaf0898	-0.021366403
45	0xbd4ed3d0	-0.05049497
46	0xbd02531c	-0.03181754
47	0x3d28dc1c	0.041225538
48	0x3ca807e0	0.020511568
49	0xbd0eb86c	-0.034843847
50	0x3d214108	0.03936866
51	0xba9f74c0	-0.0012165532
52	0xbd7627a2	-0.06009639
53	0xbd49b67c	-0.049246296
54	0x3cf4a888	0.029865518
55	0xbd4e0e4c	-0.050306603
56	0xbcc234f4	-0.02370689
57	0xbc1d1120	-0.009586602
58	0xbd5205fe	-0.051275246
59	0x3bd5d2a0	0.0065253526
60	0x3d542abe	0.051798575
61	0x3d3bdcea	0.045864977
62	0x3d1f995a	0.038964607
63	0xbc8daba8	-0.017293766
64	0x3cce77b8	0.02520357
65	0x3d4032b2	0.046923347
66	0xbd109f7c	-0.035308346
67	0xbd7c4a42	-0.061594255
68	0xbbb8ca00	-0.0056393147
69	0x3d66bda8	0.056333214
70	0xba8ea9c0	-0.001088433
71	0xbd271abc	-0.04079698
72	0xbc27b6e8	-0.010236479
73	0x3d133036	0.03593465
74	0xbd66b976	-0.056329213
75	0x3c7fd8a0	0.015615612
76	0x3d294d4e	0.04133349
77	0xbc70fa50	-0.014708117
78	0xbd296958	-0.04136023
79	0x3d005d3e	0.031338923
80	0xbd24e0ba	-0.04025338
81	0x3d5c57fa	0.05379484
82	0xbb609ac0	-0.0034271926
83	0x3c911500	0.017710209
84	0x3c8075bc	0.01568114
85	0x3c8d6e28	0.01726444
86	0xbc89c720	-0.016818583
87	0xbd5f0350	-0.05444652
88	0x3d2d2f9c	0.042281732
89	0xbceee2b8	-0.029160842
90	0x3d3b0ff0	0.045669496
91	0x3d7d3c46	0.06182506
92	0xbcd175d0	-0.025568873
93	0xbd22e06a	-0.0397648
94	0xbd78c41a	-0.060733892
95	0x3cd3f96c	0.02587577
96	0xbc5887b8	-0.013215952
97	0x3d651ea2	0.055937417
98	0xbd14c64a	-0.036321916
99	0xbcde369c	-0.02712565
100	0x3d014cb4	0.03156729
101	0x3d197262	0.0374626
102	0xba143f00	-0.00056551397
103	0x3c787388	0.015164264
104	0x3b4228e0	0.0029626414
105	0xbcbb66dc	-0.022876196
106	0xbc9e3eb0	-0.019317001
107	0x3c277de8	0.0102228895
108	0xbcd9b7ec	-0.026576959
109	0x3c2a6960	0.0104011
110	0x3d7d08f2	0.06177611
111	0xbd1578f8	-0.036492318
112	0x3c610968	0.013735153
113	0x3c5dd578	0.013539664
114	0xbcbe2400	-0.023210526
115	0x3d2194e8	0.03944865
116	0x3d60b4c8	0.054859906
117	0x3ce71da0	0.028212368
118	0x3d0791be	0.033097975
119	0x3cfc49cc	0.030796908
120	0xbcdc85f4	-0.026919343
121	0xbd473b7a	-0.048640706
122	0x3d0c99f6	0.034326516
123	0x3cd46550	0.025927216
124	0xbd27e896	-0.040993296
125	0x3c287d50	0.010283783
126	0x3d4a026e	0.049318723
127	0x3b34ca40	0.002758637
128	0x3d4afbb0	0.049556434
129	0x3d5b1168	0.053483397
130	0xbd3d1fee	-0.04617303
131	0x3d5c1a32	0.05373592
132	0xbd17d3e6	-0.037067316
133	0x3beeeb20	0.0072912127
134	0x3d40a13a	0.047028758
135	0xbd006e9a	-0.031355478
136	0xbcaf45b4	-0.021395542
137	0x3bdf1740	0.0068081915
138	0xbd50fa12	-0.051019736
139	0xbd4990bc	-0.049210295
140	0xbd2a766c	-0.041616842
141	0xbac308c0	-0.0014879927
142	0xbcf39658	-0.029734775
143	0xbd5f12f0	-0.05446142
144	0xbd27f53e	-0.041005366
145	0x3cc96e10	0.024588615
146	0xbc4b9828	-0.012426414
147	0x3d6c393c	0.05767177
148	0xbcb63690	-0.022242814
149	0xbcb0e008	-0.021591201
150	0x3cc13c68	0.023588374
151	0x3b00fda0	0.0019682422
152	0x3b2ddda0	0.0026529804
153	0x3d0035f2	0.031301446
154	0xbc739c58	-0.014868818
155	0xbd2e3ce6	-0.042538546
156	0xbd266b98	-0.040629953
157	0x3cb2d358	0.021829292
158	0xbd01a65e	-0.0316528
159	0xbba15430	-0.004923366
160	0xbcdb8d64	-0.026800819
161	0x3d5ef34e	0.054431252
162	0xbd04fd94	-0.032468393
163	0x3c681340	0.014164746
164	0x3c16fcf0	0.009215578
165	0xbd1802e4	-0.03711213
166	0xbcba8b38	-0.022771463
167	0x3cfef514	0.031122722
168	0x3d30a808	0.043128997
169	0x3d7953d6	0.060870968
170	0xbd056f2c	-0.032576725
171	0xbc119780	-0.008886218
172	0xbc7b2f60	-0.015331119
173	0x3be07320	0.0068496615
174	0x3b073e60	0.0020636544
175	0xbd28df02	-0.0412283
176	0x3d24f87c	0.040276036
177	0xbd08ff9c	-0.033446893
178	0x3d3fc98a	0.046823062
179	0x3d77436a	0.060367025
180	0xbc01ee78	-0.007930391
181	0x3d4dd546	0.05025222
182	0xbd691ff4	-0.05691524
183	0xbb318a60	-0.0027090535
184	0xbcb4b744	-0.022060044
185	0x3c83aa24	0.01607234
186	0xbcfc469c	-0.030795388
187	0x3d3e1420	0.04640591
188	0xbc1ea870	-0.009683713
189	0x3d615e84	0.055021778
190	0xbd75e49e	-0.06003248
191	0xbc73fab0	-0.0148913115
192	0x3d314c68	0.043285757
193	0x3b7f2900	0.003893435
194	0x3c14b248	0.009075709
195	0x3d1be284	0.03805782
196	0x3b738f80	0.003716439
197	0x3ce476f0	0.027888745
198	0xbd7734b0	-0.06035298
199	0xbd284822	-0.041084416
200	0x3d48b4b2	0.04900045
201	0xbd56cff4	-0.052444413
202	0x3b0f76c0	0.002189085
203	0xbccfe35c	-0.025376968
204	0xbd761a80	-0.060083866
205	0x3d34a4b2	0.04410238
206	0xbcc7f4e0	-0.024408758
207	0xbc7df780	-0.015500903
208	0x3d51d5ce	0.05122929
209	0xbd24b572	-0.040212102
210	0x3cd3cc14	0.025854148
211	0x3d455b2c	0.04818265
212	0x3c2f8ae8	0.01071427
213	0x3d5e2a76	0.054239713
214	0xbd321526	-0.0434772
215	0x3d55a7f0	0.05216211
216	0x3b16e7c0	0.0023026317
217	0x3d3d8d2c	0.04627721
218	0xbcf74970	-0.030186385
219	0x3ce87284	0.028374918
220	0x3cfc3a28	0.03078945
221	0x3cfe7180	0.03105998
222	0x3d2db550	0.04240924
223	0x3d2ca4ce	0.042149357
224	0x3d382468	0.044956595
225	0xbd725306	-0.05916121
226	0x3d320e46	0.043470643
227	0xbd516726	-0.05112376
228	0xbc1ecd00	-0.0096924305
229	0xbca0142c	-0.019540869
230	0xbc2c3210	-0.010509983
231	0x3c395b40	0.01131326
232	0xbcbb6584	-0.022875555
233	0xbca711f4	-0.020394303
234	0xbbfeb140	-0.0077725947
235	0x3d51549c	0.05110608
236	0xbd0874e2	-0.033314593
237	0x3c479078	0.01218044
238	0x3d42bc9e	0.04754316
239	0x3d256330	0.040377796
240	0xbd5b126e	-0.053484373
241	0x3baa1c10	0.0051913336
242	0x3d456640	0.048193216
243	0xbc652ec0	-0.013988197
244	0xbb7ad1e0	-0.0038272068
245	0xbd4607ae	-0.048347168
246	0x3c9577a4	0.018245526
247	0x3c6b13d0	0.014347985
248	0x3d2db50e	0.042408995
249	0xbc8584a0	-0.016298592
250	0x3c161a50	0.009161547
251	0xbd61497a	-0.055001713
252	0x3d432c2a	0.04764954
253	0x3ce87950	0.028378159
254	0xbd3d3eea	-0.046202578
255	0xbc8235e0	-0.01589483

layer_2.bias f4 [128]
0	0xbc8e5278	-0.017373309
1	0xbcd0c328	-0.025483683
2	0x3c9f9bfc	0.019483559
3	0xbd1bef10	-0.038069785
4	0x3c9e3ea8	0.019316986
5	0x3d3f4a32	0.046701618
6	0xbca02eb4	-0.01955352
7	0x3cb6bbec	0.022306405
8	0xbd3b2c50	-0.045696557
9	0xbc60f058	-0.013729177
10	0xbc3bfd68	-0.011473991
11	0x3b1ccfe0	0.0023927614
12	0xbd56645e	-0.05234181
13	0x3cbbbb90	0.022916585
14	0x3d04b8ca	0.03240279
15	0xbd74b0ea	-0.05973903
16	0x3d3e2120	0.04641831
17	0x3cf97774	0.030452468
18	0xbd121704	-0.03566648
19	0xbc9345f0	-0.017977685
20	0xbcda4f40	-0.026649117
21	0xbd56f5b2	-0.052480407
22	0x3d3a1c14	0.045436934
23	0x3c972818	0.018451735
24	0x3d2b2d20	0.04179108
25	0xbd6a3bb0	-0.05718583
26	0x3c6f04d8	0.014588557
27	0xbd480ccc	-0.04884033
28	0x3d276f7c	0.040877804
29	0x3d1358ca	0.035973348
30	0xbc230c00	-0.0099515915
31	0x3d2d6d46	0.04234054
32	0xbd5d0c8c	-0.053967044
33	0xbd17d302	-0.037066467
34	0xbd13e732	-0.036109157
35	0x3d4e8b48	0.050425798
36	0xbb725de0	-0.0036982223
37	0x3d25b9d2	0.040460415
38	0x39d84600	0.00041250885
39	0xbd3f3f32	-0.046691127
40	0x3d4fdce2	0.05074776
41	0x3cf8ed20	0.030386508
42	0x3d0f36f8	0.03496453
43	0x3b808980	0.0039226413
44	0x3d215d42	0.03939558
45	0x3d4cf414	0.05003746
46	0x3d4fd918	0.050744146
47	0xbc494048	-0.012283392
48	0x3cb4f53c	0.022089593
49	0xbcad0bf4	-0.021123864
50	0xbd3052ca	-0.043047704
51	0xbd27173e	-0.04079365
52	0x3c2a23f8	0.010384552
53	0xbc9e6934	-0.019337274
54	0x3d318b72	0.043345876
55	0xbd2882ba	-0.041140296
56	0x3cab5670	0.02091524
57	0xbb9c4310	-0.0047687367
58	0xbd139378	-0.03602931
59	0x3cc40184	0.023926504
60	0x3ce153b8	0.02750574
61	0x3cbde598	0.023180768
62	0x3d6a27d0	0.057166874
63	0xbc708b78	-0.014681689
64	0x3b8dea70	0.0043309256
65	0x3ba53fb0	0.0050429925
66	0x3cf54610	0.029940635
67	0xbcfc6a00	-0.030812263
68	0xbcfccebc	-0.030860297
69	0xbcb15bdc	-0.021650247
70	0x3d5c6ffe	0.05381774
71	0x3c73d690	0.014882699
72	0xb987ad00	-0.00025878102
73	0x3d5b8e62	0.053602584
74	0xbd127da8	-0.035764366
75	0x3d165c82	0.036709316
76	0x3cd6c34c	0.026216172
77	0xbd465fe4	-0.048431292
78	0xbd483f5e	-0.048888557
79	0xbd53989e	-0.05165922
80	0x3d62d316	0.05537709
81	0x3af651c0	0.0018792674
82	0xbc833864	-0.0160181
83	0x3ca41900	0.020031452
84	0x3bfbda40	0.0076859295
85	0x3ce6b050	0.028160244
86	0xbbef4540	-0.0073019564
87	0x3d4b6312	0.049655028
88	0x3d6663da	0.05624757
89	0x3d127054	0.035751656
90	0x3d16d9f4	0.03682895
91	0x3d163784	0.036674038
92	0xbccc7034	-0.024955846
93	0xbd59b832	-0.053154178
94	0xbcb84344	-0.022493012
95	0x3d763824	0.060112134
96	0x3d49917a	0.049211003
97	0x3d3f6f84	0.04673721
98	0xbd786bde	-0.060649745
99	0x3d4ade4e	0.049528413
100	0x3cd083c0	0.025453448
101	0xbcd23a84	-0.025662668
102	0xbd005164	-0.03132762
103	0x3d5eb3aa	0.05437056
104	0xbcecc04c	-0.028900288
105	0xbc71c460	-0.014756292
106	0x3d1b5a32	0.037927814
107	0x3cc73220	0.024315894
108	0xbbf65b20	-0.007518187
109	0x3bd3aed0	0.0064600483
110	0xbc6ebde0	-0.014571637
111	0xbc2a7c30	-0.010405585
112	0xbd419a06	-0.04726603
113	0x3d13ee04	0.03611566
114	0x3b4651e0	0.0030261204
115	0x3d55c882	0.052193172
116	0x3d780bda	0.060558178
117	0xbc407370	-0.011746272
118	0x3d46edd6	0.04856666
119	0x3d3feaf8	0.046854943
120	0xbd5d0930	-0.05396384
121	0xbd57e384	-0.05270721
122	0x3d5ecd66	0.054395102
123	0xbd077d02	-0.0330782
124	0xbc920e68	-0.017829135
125	0xbcc002a8	-0.023438767
126	0x3c5f2298	0.013619088
127	0xbbc57520	-0.0060259253

layer_3.weight f4 [64, 128]
0	0x3c33f418	0.010983489
1	0xbdb49b48	-0.0881868
2	0xbd37cafc	-0.044871315
3	0xbd73cdc3	-0.0595224
4	0x3cc7cc4c	0.024389409
5	0xbbe63f30	-0.0070265755
6	0x3c98e294	0.018662728
7	0xbd18aea7	-0.037275936
8	0xbbbe3180	-0.0058042407
9	0xbc01ef80	-0.007930636
10	0x3c8deb20	0.01732403
11	0x3cd36508	0.025805011
12	0x3d4ce89e	0.05002653
13	0x3cd6b4b8	0.02620922
14	0xbd4a0140	-0.0493176
15	0x3db1d93d	0.08684013
16	0xbd3db746	-0.04631736
17	0xbd8cdec1	-0.068784244
18	0x3b4ca140	0.0031224042
19	0x3d8f17fd	0.06986997
20	0x3cd59f70	0.026077002
21	0x3c9afcdc	0.0189194
22	0x3d9cd717	0.07658213
23	0x3dac40ad	0.084107734
24	0x3ae95c00	0.0017803907
25	0x3d995981	0.07487775
26	0x3c60cb20	0.013720304
27	0xbd3afa99	-0.045649145
28	0xbd979612	-0.074016705
29	0x3c9fc050	0.019500881
30	0xbdabf5fe	-0.08396529
31	0xbd06a952	-0.03287632
32	0xbcec7068	-0.028862193
33	0xbda98500	-0.08277321
34	0xbd34783c	-0.044059977
35	0x3d9ab8e1	0.07554794
36	0x3d8ad379	0.067786165
37	0x3c520420	0.012818366
38	0x3d2d493e	0.042306177
39	0xbc758310	-0.014984861
40	0xbdaf0523	-0.085459016
41	0x3b11aac0	0.002222702
42	0xbca4a9cc	-0.020100497
43	0xbd941dda	-0.07232256
44	0x3d3707c6	0.044685148
45	0xbd8ea93b	-0.06965872
46	0xbdad8bcd	-0.084739305
47	0xbcdb59f0	-0.026776284
48	0x3d92987f	0.071579926
49	0xbd944771	-0.07240189
50	0x3db136cd	0.086530305
51	0x3d0bc862	0.034126647
52	0x3b7e2960	0.0038781986
53	0xbcee04ea	-0.029055078
54	0x3cc398d0	0.023876578
55	0xbd2526f9	-0.04032037
56	0xbd7fcb75	-0.06244989
57	0xbc8a39ac	-0.016873203
58	0xbdabaacd	-0.08382187
59	0xbdaeef99	-0.085417934
60	0xbd4f9e0e	-0.050687842
61	0x3d19bc5a	0.03753314
62	0xbda0de92	-0.07854952
63	0x3b880190	0.004150577
64	0x3d60983a	0.054832675
65	0x3dafa5c7	0.085765414
66	0xbcbd48b8	-0.023105964
67	0xbce72202	-0.028214458
68	0x3d13c214	0.03607376
69	0xbc978328	-0.018495157
70	0x3c841698	0.016124055
71	0x3d206ad2	0.03916437
72	0xbd0ffed0	-0.035155118
73	0x3c031bc8	0.008002229
74	0xbd000f70	-0.031264722
75	0xbc31b190	-0.010845557
76	0x3d625276	0.055254422
77	0x3c666898	0.014063023
78	0xbcf312d0	-0.029672056
79	0xbc85287c	-0.016254656
80	0xbd77761a	-0.060415365
81	0xbd9c5826	-0.076340005
82	0xbd0bd5d5	-0.034139473
83	0xbdad2ab3	-0.0845541
84	0xbda22f11	-0.079191335
85	0x3ca438d0	0.020046622
86	0x3d9a3a63	0.07530668
87	0x3da84629	0.08216507
88	0xbcbb1858	-0.022838756
89	0xbcfc4f6c	-0.03079959
90	0x3d3263d2	0.043552227
91	0xbd40a3ac	-0.04703109
92	0xbd725fec	-0.05917351
93	0x3da02757	0.078200035
94	0x3d9f4985	0.077776946
95	0xbd8234c5	-0.06357721
96	0xbc538498	-0.012910031
97	0xbd7fe1c9	-0.062471185
98	0x3cff718c	0.031182073
99	0x3cb528a4	0.022114106
100	0x3db31bb7	0.087455206
101	0xbd115195	-0.035478193
102	0xbd983751	-0.07432426
103	0x3d35a112	0.04434306
104	0xbd9c2647	-0.07624488
105	0xbd0b16f2	-0.03395743
106	0x3a690300	0.00088886917
107	0xbcd8a2da	-0.026444841
108	0x3d2cab7e	0.042155735
109	0xbc2569f0	-0.010096058
110	0x3d79579e	0.060874574
111	0xbcf9d32e	-0.030496206
112	0x3d1eaa8a	0.038736857
113	0xbda9785d	-0.082749106
114	0x3c6a99b8	0.014318876
115	0x3d84db23	0.064871095
116	0x3c2ed558	0.010670982
117	0xbb83a3a0	-0.0040173084
118	0xbd64ae7c	-0.055830464
119	0x3d859969	0.06523401
120	0x3ce6c594	0.028170384
121	0x3cbf2910	0.02333501
122	0xbd050f8b	-0.032485526
123	0x3d836d49	0.06417329
124	0x3d0cab22	0.034342892
125	0x3da768f3	0.08174314
126	0xbd7d3aca	-0.061823644
127	0xbcbe4e20	-0.023230612
128	0x3d0bcf3a	0.034133174
129	0x3d9f4541	0.07776881
130	0x3d772dae	0.060346298
131	0x3d7cc57e	0.06171178
132	0x3d5fbb96	0.054622255
133	0xbca98580	-0.02069354
134	0x3d75efe6	0.060043238
135	0xbccd7414	-0.025079764
136	0xbd7bf5fb	-0.061513882
137	0x3bff98d0	0.007800199
138	0xbd12cca9	-0.03583971
139	0x3d5b051e	0.053471677
140	0x3d8d5749	0.06901414
141	0x3d16c8a6	0.036812447
142	0xbccecc84	-0.025244005
143	0x3d63c4d6	0.05560764
144	0x3d31195a	0.043237068
145	0x3d35c66e	0.04437869
146	0x3d1d64f6	0.038426362
147	0xbda37646	-0.07981543
148	0xbda78c54	-0.08181062
149	0x3cbd6dd4	0.02312366
150	0xbd9ba7e7	-0.07600384
151	0xbbf08a30	-0.007340692
152	0xba3dbe80	-0.00072381645
153	0x3c107208	0.00881625
154	0x3d933483	0.0718775
155	0xbd8554bc	-0.065103024
156	0xbd3c8212	-0.046022482
157	0xbd9e1b13	-0.07720008
158	0xbd8e4a54	-0.06947771
159	0xbcc29224	-0.023751326
160	0xbda532ec	-0.08066353
161	0xbd2403d8	-0.04004273
162	0xbd672f2b	-0.056441467
163	0xbc976770	-0.01848194
164	0x3d00349e	0.03130018
165	0xbd6be5f2	-0.05759234
166	0xbd7e93ca	-0.06215266
167	0xbceb6700	-0.028735638
168	0x3dac908b	0.08426007
169	0xbd9f11d5	-0.07767073
170	0xbd1b9b7d	-0.037990082
171	0xbd146e3d	-0.036237944
172	0x3d8b2df9	0.06795878
173	0x3d698556	0.057011925
174	0xbd7f5dc2	-0.062345274
175	0xbd46dc62	-0.048550017
176	0x3d9b7851	0.07591308
177	0x3da39483	0.07987311
178	0xbc48fa80	-0.012266755
179	0x3c331a50	0.010931566
180	0x3d80843d	0.062752225
181	0xbc103f10	-0.008804098
182	0x3ceb5a38	0.028729543
183	0x3ce96534	0.02849064
184	0x3d677e8e	0.056517176
185	0x3d198a4e	0.037485413
186	0xbdac86da	-0.084241584
187	0x3cb8aa00	0.022542
188	0x3d8733f9	0.0660171
189	0x3d1b150e	0.037861876
190	0xbcdfc7bc	-0.02731692
191	0x3d9eb051	0.077484734
192	0xbac0b0c0	-0.0014701113
193	0xbd943822	-0.07237269
194	0x3c51b178	0.0127986595
195	0xbd7cc1fc	-0.061708435
196	0xbda26243	-0.07928898
197	0xbd6b5316	-0.057452284
198	0xbd02934a	-0.031878747
199	0xbd66137a	-0.056170918
200	0x3d7dfa02	0.062006004
201	0xbd1842ad	-0.037172962
202	0xbdae1014	-0.084991604
203	0x3d64da36	0.055872165
204	0x3d63f7b2	0.055656143
205	0x3d4e64ca	0.05038909
206	0xbd8b19dd	-0.067920424
207	0x3d5d7212	0.054063864
208	0x3cff0664	0.031130977
209	0xbd934fde	-0.07192968
210	0xbcba6824	-0.022754736
211	0x3d99f981	0.07518292
212	0x3d406d2e	0.046979122
213	0x3d0e6128	0.034760624
214	0xbd1875e8	-0.03722182
215	0xbc85b534	-0.016321756
216	0x3d07f27a	0.033190228
217	0xbd8bc366	-0.06824379
218	0x3d1d2396	0.038364016
219	0xbd329cba	-0.043606497
220	0x3db4ffeb	0.08837875
221	0xbd4084d8	-0.04700169
222	0xbb33e4c0	-0.0027449578
223	0x39b0ca00	0.00033719838
224	0xbc3855c0	-0.011250913
225	0xbda8e893	-0.08247485
226	0xbd90548d	-0.07047377
227	0xba9389c0	-0.0011256263
228	0x3dafc601	0.08582688
229	0xbd2ed434	-0.04268284
230	0x3d4f5b6e	0.050624304
231	0x3d0173a4	0.031604424
232	0xbd23de0c	-0.040006682
233	0xbda125ab	-0.07868513
234	0x3b59c7e0	0.0033230707
235	0xbd771dd6	-0.06033119
236	0x3caad94c	0.020855568
237	0xbccc1fac	-0.024917446
238	0x3d1586ce	0.036505513
239	0x3d95eb99	0.07320327
240	0xbdafd3f7	-0.08585351
241	0x3d7662ea	0.060152926
242	0x3ce44978	0.027867064
243	0x3ce56aa8	0.02800496
244	0x3c93e264	0.018052287
245	0x3d88c8bb	0.06678911
246	0x3cadb1fc	0.021203034
247	0xbabe5c80	-0.0014523417
248	0xbd3de2ac	-0.04635875
249	0x3c24c9e8	0.010057904
250	0x3d4439ca	0.047906674
251	0x3da43b5d	0.08019135
252	0x3d632792	0.05545766
253	0x3d01fb10	0.031733572
254	0x3d8acc37	0.06777232
255	0xbd520ea7	-0.051283505

layer_3.bias f4 [64]
0	0xbd1c8cb9	-0.03822014
1	0x3d811389	0.06302554
2	0xbdb264f2	-0.0871066
3	0x3d8d00ad	0.068848945
4	0xbcc9b4b8	-0.024622306
5	0x3daf813b	0.08569571
6	0xbd0267d9	-0.031837318
7	0x3d1f7076	0.03892561
8	0x3c6c9e08	0.014441974
9	0x3c106fd0	0.008815721
10	0xbd593be7	-0.053035643
11	0xbd9df7cc	-0.07713279
12	0x3da3a2bb	0.07990023
13	0x3d3ca422	0.046054967
14	0x3d59c122	0.0531627
15	0x3d995209	0.0748635
16	0x3c03a430	0.008034751
17	0x3d88fab1	0.066884406
18	0x3c7b7898	0.015348576
19	0x3d1f2c5a	0.038860656
20	0x3d7a8166	0.06115856
21	0xbc1f7b48	-0.009733982
22	0xbd67da88	-0.056604892
23	0x3d32a21e	0.04361164
24	0xbd23408d	-0.039856482
25	0x3d12828e	0.035769038
26	0xbd78b0f2	-0.060715623
27	0x3d71fefa	0.059081055
28	0x3d871b57	0.065970115
29	0x3d0f3d98	0.03497085
30	0xbc378118	-0.011200212
31	0xbdb417ad	-0.08793578
32	0x3dab5807	0.08366399
33	0x3d51a7be	0.051185362
34	0xbd4a67b1	-0.049415294
35	0xbdb137f3	-0.086532496
36	0x3d26d522	0.040730603
37	0x3d87ce2d	0.06631122
38	0x3d5e3946	0.05425384
39	0xbda5ce47	-0.08095985
40	0xbc642578	-0.013924949
41	0xbc9fc934	-0.01950512
42	0x3d553206	0.05204966
43	0x3d97145b	0.073769294
44	0xbd8829b5	-0.0664858
45	0xbc70c350	-0.014695004
46	0x3c504800	0.012712479
47	0x3ae0d180	0.001715228
48	0x3d8094db	0.06278392
49	0xbb891190	-0.004183002
50	0x3d271726	0.04079356
51	0x3c8aa128	0.016922548
52	0xbb506bc0	-0.0031802505
53	0xbd21a4c6	-0.03946378
54	0xbc403190	-0.011730567
55	0xbd01bd37	-0.03167459
56	0xbb566ea0	-0.0032719746
57	0xbc9c7a1c	-0.019101195
58	0x3d3faf9a	0.046798326
59	0xbdad8633	-0.08472862
60	0xbd96bf24	-0.07360676
61	0x3d7b8bca	0.06141261
62	0x3d480122	0.048829205
63	0x3db45413	0.088050984

layer_out.weight f4 [15, 122]
0	0xc085a5d6	-4.1764936
1	0x3f8393a4	1.0279431
2	0xc0a25e1a	-5.073987
3	0xc0f7d002	-7.7441416
4	0xc0da1ae1	-6.815781
5	0xc0ba0541	-5.8131413
6	0xc047db36	-3.1227546
7	0xc04e75ab	-3.225932
8	0xc10ed489	-8.926888
9	0xc05a2ab8	-3.4088573
10	0xbfbedb0b	-1.4910597
11	0x40316e75	2.7723668
12	0xbfc106f0	-1.5080242
13	0xc011bae2	-2.2770314
14	0xc1247d5a	-10.280603
15	0xc09f4c72	-4.9780817
16	0xbfbc4d3c	-1.471107
17	0xc10279f1	-8.154771
18	0xbe5a6a54	-0.21329623
19	0xc02b9d1b	-2.681464
20	0xc0bab707	-5.834842
21	0x3e4abc5b	0.19798414
22	0xc069bcd2	-3.6521497
23	0xc0264608	-2.5980244
24	0xbd8d4877	-0.06898587
25	0xbf89dd65	-1.0770689
26	0xc09c6351	-4.8871236
27	0xc0ad8a5d	-5.42314
28	0xbfe70b30	-1.8050289
29	0xc06d23a9	-3.7053015
30	0x3fd979fa	1.6990349
31	0xbe2711cf	-0.16315387
32	0xc0b00607	-5.5007358
33	0xbdfb65ed	-0.122753
34	0xc08ad5f5	-4.338618
35	0xbf1975d7	-0.59945434
36	0xc059a5df	-3.400749
37	0xbf893a60	-1.072094
38	0xc03eef6e	-2.9833636
39	0xc08def82	-4.435487
40	0xc0298218	-2.6485653
41	0xc0d305cc	-6.5944576
42	0xbecd3e86	-0.40086764
43	0xbfdf1635	-1.7428652
44	0xbfb5d6ad	-1.4206139
45	0xc06cc480	-3.6994934
46	0xc0ac15b0	-5.3776474
47	0xc09646bf	-4.696136
48	0x3efc0fab	0.49230704
49	0xc01f8970	-2.4927635
50	0xbe6127b7	-0.21987806
51	0xc0b8fd9f	-5.7809596
52	0xc087f452	-4.2485743
53	0xbf65c10e	-0.89747703
54	0xc0b09c3e	-5.5190725
55	0xc06c6cd9	-3.6941435
56	0xbfca3587	-1.5797585
57	0xbed3e015	-0.413819
58	0xbfc8c35d	-1.568462
59	0xc0878491	-4.2349324
60	0xc035db1a	-2.841498
61	0xc0d6520d	-6.697516
62	0xc06e9393	-3.7277572
63	0xc091170f	-4.534065
64	0xc084879f	-4.1415553
65	0xbf8e2746	-1.1105735
66	0xbfec4266	-1.8457763
67	0xbe2b19eb	-0.16709106
68	0xbec5c4b5	-0.38626638
69	0xc0b0c7a6	-5.524371
70	0xc0403b86	-3.003633
71	0xc01ff5c6	-2.4993758
72	0xc0734fd3	-3.801747
73	0x3f6bb470	0.920722
74	0xc1934141	-18.406862
75	0xc05a59ff	-3.411743
76	0xc0977cf4	-4.734003
77	0xbe82b848	-0.2553122
78	0xc05c512e	-3.4424548
79	0xc0227a04	-2.5386972
80	0xbf965963	-1.1746029
81	0xbd8b51e7	-0.06802731
82	0x3eae5430	0.34048605
83	0xc0a91164	-5.283373
84	0xc012f069	-2.2959235
85	0xc19bee5d	-19.491388
86	0xc08d02cb	-4.406591
87	0xc0770e0c	-3.8602324
88	0xbf346c1e	-0.70477474
89	0xbffa495b	-1.9553636
90	0xc05526ff	-3.3305051
91	0x3f3c1d50	0.7348223
92	0xc088cbca	-4.2748766
93	0xc08d3c32	-4.413598
94	0xc0471d30	-3.1111565
95	0xbe713a0b	-0.23557298
96	0xc06d1342	-3.7043004
97	0xc1755825	-15.33402
98	0xc0571a69	-3.360987
99	0xc0eaed8b	-7.341497
100	0xc012203a	-2.283217
101	0x3f8b2984	1.0872045
102	0xc07591cd	-3.837024
103	0xbf3d54be	-0.7395743
104	0xbf94c54f	-1.1622714
105	0xc0bc2524	-5.879534
106	0x3f3ae4c5	0.73005325
107	0xbe9345d7	-0.2876422
108	0xc01c61fd	-2.4434807
109	0x3f3001dc	0.6875284
110	0xc01f2c8d	-2.4870942
111	0xbfee3b54	-1.8611856
112	0xbf359694	-0.7093289
113	0xbe26dcd4	-0.16295177
114	0xbd43c375	-0.047793824
115	0xc02ef85a	-2.7339082
116	0xbf221ef3	-0.63328475
117	0xc0cb8713	-6.3602386
118	0xc14172de	-12.090544
119	0xc0589b88	-3.3844929
120	0xc00f533e	-2.2394557
121	0xc0b693d8	-5.7055473
122	0xc026b9b7	-2.6050851
123	0xc0203314	-2.5031176
124	0xc03310e0	-2.797905
125	0xc006b936	-2.1050544
126	0xc01b7990	-2.4292946
127	0xc02eaac2	-2.7291722
128	0xbff9231c	-1.946384
129	0xbffe1501	-1.985016
130	0xc06e315d	-3.721763
131	0xc029dd40	-2.654129
132	0xc00a5732	-2.161572
133	0xc0451885	-3.0796216
134	0xbfd451da	-1.6587479
135	0xc008cb80	-2.1374207
136	0xc087f65f	-4.2488246
137	0x3f31caec	0.6945026
138	0xc0611c7c	-3.5173635
139	0xc065d6f2	-3.5912442
140	0xc09802d5	-4.7503457
141	0xc05cab81	-3.4479678
142	0xc0551d10	-3.3298988
143	0xc03cb18e	-2.948337
144	0xc02bf291	-2.68668
145	0xbfa7a672	-1.309767
146	0xc07f10c0	-3.9853973
147	0xbfdf31de	-1.7437093
148	0x3f85a728	1.0441637
149	0xbfe0199c	-1.7507815
150	0xc02840cc	-2.628955
151	0xc0405723	-3.0053184
152	0xc03e7b79	-2.9762862
153	0xc0579ab2	-3.3688169
154	0xc045819b	-3.0860355
155	0xc03c92a3	-2.94645
156	0xc01f1077	-2.48538
157	0xc04a1644	-3.157609
158	0xc043dd25	-3.0603726
159	0xc01829cc	-2.377551
160	0xc013d3c4	-2.3098001
161	0xc0136e91	-2.3036234
162	0xc0313813	-2.7690475
163	0xc00c0a06	-2.1881118
164	0x3f1336ef	0.57505697
165	0xc05de196	-3.4668937
166	0xc03e22bc	-2.97087
167	0xbff91d79	-1.9462119
168	0xc02509c6	-2.5787215
169	0x3f8835da	1.0641434
170	0xc04bdf0f	-3.1854894
171	0xbff4e30b	-1.9131788
172	0xc05839da	-3.378531
173	0xbfd1eaca	-1.6399777
174	0xbfcb9ecc	-1.5907836
175	0xc009b75b	-2.1518161
176	0xc02df02e	-2.7177844
177	0xc011cc51	-2.2780955
178	0xc01ac49c	-2.41825
179	0xc0168d37	-2.352369
180	0xc06980c8	-3.6484852
181	0xbfd35ee1	-1.651333
182	0xc01f449a	-2.488562
183	0xc013d377	-2.3097818
184	0xc01d6f99	-2.4599364
185	0xc03076bf	-2.7572477
186	0xc0077b04	-2.1168833
187	0xc03c55bb	-2.9427326
188	0xc052d577	-3.2942789
189	0xc04874f4	-3.1321383
190	0xc0428716	-3.039495
191	0xc0067c83	-2.1013496
192	0xc012d708	-2.2943745
193	0xc00bd993	-2.1851547
194	0xc01637f1	-2.3471644
195	0xc007fe14	-2.1248827
196	0xc02e6430	-2.724865
197	0xc0101693	-2.2513778
198	0x3f193435	0.59845287
199	0xc0294123	-2.6446006
200	0xc04cf2eb	-3.2023265
201	0xc009be88	-2.152254
202	0xc028d753	-2.6381423
203	0xbffb1a5a	-1.9617417
204	0xbfb4d0e2	-1.4126246
205	0xc048576b	-3.1303356
206	0xc005202d	-2.0800889
207	0xc04ecf9b	-3.2314212
208	0xc038dd77	-2.8885171
209	0x3f9bf719	1.2184783
210	0xc03f1d51	-2.9861643
211	0x3e0c7079	0.1371478
212	0xbf54a505	-0.830643
213	0xc00e0001	-2.2187502
214	0xc000ac1d	-2.010505
215	0xc03bd820	-2.9350662
216	0xc01846a8	-2.3793125
217	0xc01583bb	-2.3361652
218	0xc00da843	-2.2133949
219	0xc01a7a89	-2.413729
220	0x3f149f08	0.5805516
221	0xc0083f09	-2.1288474
222	0xc004e50e	-2.0764804
223	0xc03d5401	-2.9582522
224	0xc020493a	-2.5044694
225	0xc060731d	-3.507026
226	0xc03c01e4	-2.9376154
227	0xc01599a4	-2.3375025
228	0xc002e978	-2.0454998
229	0xc03b32ff	-2.9249876
230	0xc009021b	-2.1407535
231	0xc008bf57	-2.1366785
232	0x3f974674	1.1818376
233	0x3e76a282	0.2408543
234	0xc043aaed	-3.0573075
235	0xbfc93213	-1.5718406
236	0xc00759af	-2.1148489
237	0xc00af40e	-2.171146
238	0xc0247afd	-2.5700066
239	0xc037f39a	-2.8742433
240	0xc0447f80	-3.070282
241	0xc047563a	-3.1146379
242	0xbf4e2ea9	-0.8053995
243	0xc04036c9	-3.0033438
244	0xc0280810	-2.625492
245	0x3fd6bda1	1.677662
246	0xc0496ad5	-3.1471455
247	0xc0d60a1a	-6.688733
248	0xc0f1bbbd	-7.5541673
249	0xc05ef23e	-3.4835353
250	0xc094b3ba	-4.6469393
251	0xbffd504e	-1.9790132
252	0xc06adb87	-3.669649
253	0xc00a9bb7	-2.165754
254	0x3fb3f649	1.4059535
255	0xc04d302e	-3.2060657

layer_out.bias f4 [15]
0	0xbf186e34	-0.59543157
1	0xbe8b0da0	-0.27158833
2	0xbf6a1383	-0.9143602
3	0xbf2ee6c7	-0.6832089
4	0x3f66c92a	0.901507
5	0x3e6b082d	0.22952338
6	0xbe9bb16f	-0.3040881
7	0xbfd2ee20	-1.647892
8	0xbf81e258	-1.01472
9	0x3e8f4d60	0.2798872
10	0x3f9d5c08	1.2293711
11	0xbf85fac7	-1.0467156
12	0xbed3d76b	-0.41375288
13	0xbf3c8d12	-0.73652756
14	0x3da23c33	0.07921638

batchnorm1.weight f4 [256]
0	0x3f800000	1.0
1	0x3f800000	1.0
2	0x3f800000	1.0
3	0x3f800000	1.0
4	0x3f800000	1.0
5	0x3f800000	1.0
6	0x3f800000	1.0
7	0x3f800000	1.0
8	0x3f800000	1.0
9	0x3f800000	1.0
10	0x3f800000	1.0
11	0x3f800000	1.0
12	0x3f800000	1.0
13	0x3f800000	1.0
14	0x3f800000	1.0
15	0x3f800000	1.0
16	0x3f800000	1.0
17	0x3f800000	1.0
18	0x3f800000	1.0
19	0x3f800000	1.0
20	0x3f800000	1.0
21	0x3f800000	1.0
22	0x3f800000	1.0
23	0x3f800000	1.0
24	0x3f800000	1.0
25	0x3f800000	1.0
26	0x3f800000	1.0
27	0x3f800000	1.0
28	0x3f800000	1.0
29	0x3f800000	1.0
30	0x3f800000	1.0
31	0x3f800000	1.0
32	0x3f800000	1.0
33	0x3f800000	1.0
34	0x3f800000	1.0
35	0x3f800000	1.0
36	0x3f800000	1.0
37	0x3f800000	1.0
38	0x3f800000	1.0
39	0x3f800000	1.0
40	0x3f800000	1.0
41	0x3f800000	1.0
42	0x3f800000	1.0
43	0x3f800000	1.0
44	0x3f800000	1.0
45	0x3f800000	1.0
46	0x3f800000	1.0
47	0x3f800000	1.0
48	0x3f800000	1.0
49	0x3f800000	1.0
50	0x3f800000	1.0
51	0x3f800000	1.0
52	0x3f800000	1.0
53	0x3f800000	1.0
54	0x3f800000	1.0
55	0x3f800000	1.0
56	0x3f800000	1.0
57	0x3f800000	1.0
58	0x3f800000	1.0
59	0x3f800000	1.0
60	0x3f800000	1.0
61	0x3f800000	1.0
62	0x3f800000	1.0
63	0x3f800000	1.0
64	0x3f800000	1.0
65	0x3f800000	1.0
66	0x3f800000	1.0
67	0x3f800000	1.0
68	0x3f800000	1.0
69	0x3f800000	1.0
70	0x3f800000	1.0
71	0x3f800000	1.0
72	0x3f800000	1.0
73	0x3f800000	1.0
74	0x3f800000	1.0
75	0x3f800000	1.0
76	0x3f800000	1.0
77	0x3f800000	1.0
78	0x3f800000	1.0
79	0x3f800000	1.0
80	0x3f800000	1.0
81	0x3f800000	1.0
82	0x3f800000	1.0
83	0x3f800000	1.0
84	0x3f800000	1.0
85	0x3f800000	1.0
86	0x3f800000	1.0
87	0x3f800000	1.0
88	0x3f800000	1.0
89	0x3f800000	1.0
90	0x3f800000	1.0
91	0x3f800000	1.0
92	0x3f800000	1.0
93	0x3f800000	1.0
94	0x3f800000	1.0
95	0x3f800000	1.0
96	0x3f800000	1.0
97	0x3f800000	1.0
98	0x3f800000	1.0
99	0x3f800000	1.0
100	0x3f800000	1.0
101	0x3f800000	1.0
102	0x3f800000	1.0
103	0x3f800000	1.0
104	0x3f800000	1.0
105	0x3f800000	1.0
106	0x3f800000	1.0
107	0x3f800000	1.0
108	0x3f800000	1.0
109	0x3f800000	1.0
110	0x3f800000	1.0
111	0x3f800000	1.0
112	0x3f800000	1.0
113	0x3f800000	1.0
114	0x3f800000	1.0
115	0x3f800000	1.0
116	0x3f800000	1.0
117	0x3f800000	1.0
118	0x3f800000	1.0
119	0x3f800000	1.0
120	0x3f800000	1.0
121	0x3f800000	1.0
122	0x3f800000	1.0
123	0x3f800000	1.0
124	0x3f800000	1.0
125	0x3f800000	1.0
126	0x3f800000	1.0
127	0x3f800000	1.0
128	0x3f800000	1.0
129	0x3f800000	1.0
130	0x3f800000	1.0
131	0x3f800000	1.0
132	0x3f800000	1.0
133	0x3f800000	1.0
134	0x3f800000	1.0
135	0x3f800000	1.0
136	0x3f800000	1.0
137	0x3f800000	1.0
138	0x3f800000	1.0
139	0x3f800000	1.0
140	0x3f800000	1.0
141	0x3f800000	1.0
142	0x3f800000	1.0
143	0x3f800000	1.0
144	0x3f800000	1.0
145	0x3f800000	1.0
146	0x3f800000	1.0
147	0x3f800000	1.0
148	0x3f800000	1.0
149	0x3f800000	1.0
150	0x3f800000	1.0
151	0x3f800000	1.0
152	0x3f800000	1.0
153	0x3f800000	1.0
154	0x3f800000	1.0
155	0x3f800000	1.0
156	0x3f800000	1.0
157	0x3f800000	1.0
158	0x3f800000	1.0
159	0x3f800000	1.0
160	0x3f800000	1.0
161	0x3f800000	1.0
162	0x3f800000	1.0
163	0x3f800000	1.0
164	0x3f800000	1.0
165	0x3f800000	1.0
166	0x3f800000	1.0
167	0x3f800000	1.0
168	0x3f800000	1.0
169	0x3f800000	1.0
170	0x3f800000	1.0
171	0x3f800000	1.0
172	0x3f800000	1.0
173	0x3f800000	1.0
174	0x3f800000	1.0
175	0x3f800000	1.0
176	0x3f800000	1.0
177	0x3f800000	1.0
178	0x3f800000	1.0
179	0x3f800000	1.0
180	0x3f800000	1.0
181	0x3f800000	1.0
182	0x3f800000	1.0
183	0x3f800000	1.0
184	0x3f800000	1.0
185	0x3f800000	1.0
186	0x3f800000	1.0
187	0x3f800000	1.0
188	0x3f800000	1.0
189	0x3f800000	1.0
190	0x3f800000	1.0
191	0x3f800000	1.0
192	0x3f800000	1.0
193	0x3f800000	1.0
194	0x3f800000	1.0
195	0x3f800000	1.0
196	0x3f800000	1.0
197	0x3f800000	1.0
198	0x3f800000	1.0
199	0x3f800000	1.0
200	0x3f800000	1.0
201	0x3f800000	1.0
202	0x3f800000	1.0
203	0x3f800000	1.0
204	0x3f800000	1.0
205	0x3f800000	1.0
206	0x3f800000	1.0
207	0x3f800000	1.0
208	0x3f800000	1.0
209	0x3f800000	1.0
210	0x3f800000	1.0
211	0x3f800000	1.0
212	0x3f800000	1.0
213	0x3f800000	1.0
214	0x3f800000	1.0
215	0x3f800000	1.0
216	0x3f800000	1.0
217	0x3f800000	1.0
218	0x3f800000	1.0
219	0x3f800000	1.0
220	0x3f800000	1.0
221	0x3f800000	1.0
222	0x3f800000	1.0
223	0x3f800000	1.0
224	0x3f800000	1.0
225	0x3f800000	1.0
226	0x3f800000	1.0
227	0x3f800000	1.0
228	0x3f800000	1.0
229	0x3f800000	1.0
230	0x3f800000	1.0
231	0x3f800000	1.0
232	0x3f800000	1.0
233	0x3f800000	1.0
234	0x3f800000	1.0
235	0x3f800000	1.0
236	0x3f800000	1.0
237	0x3f800000	1.0
238	0x3f800000	1.0
239	0x3f800000	1.0
240	0x3f800000	1.0
241	0x3f800000	1.0
242	0x3f800000	1.0
243	0x3f800000	1.0
244	0x3f800000	1.0
245	0x3f800000	1.0
246	0x3f800000	1.0
247	0x3f800000	1.0
248	0x3f800000	1.0
249	0x3f800000	1.0
250	0x3f800000	1.0
251	0x3f800000	1.0
252	0x3f800000	1.0
253	0x3f800000	1.0
254	0x3f800000	1.0
255	0x3f800000	1.0

batchnorm1.bias f4 [256]
0	0x00000000	0.0
1	0x00000000	0.0
2	0x00000000	0.0
3	0x00000000	0.0
4	0x00000000	0.0
5	0x00000000	0.0
6	0x00000000	0.0
7	0x00000000	0.0
8	0x00000000	0.0
9	0x00000000	0.0
10	0x00000000	0.0
11	0x00000000	0.0
12	0x00000000	0.0
13	0x00000000	0.0
14	0x00000000	0.0
15	0x00000000	0.0
16	0x00000000	0.0
17	0x00000000	0.0
18	0x00000000	0.0
19	0x00000000	0.0
20	0x00000000	0.0
21	0x00000000	0.0
22	0x00000000	0.0
23	0x00000000	0.0
24	0x00000000	0.0
25	0x00000000	0.0
26	0x00000000	0.0
27	0x00000000	0.0
28	0x00000000	0.0
29	0x00000000	0.0
30	0x00000000	0.0
31	0x00000000	0.0
32	0x00000000	0.0
33	0x00000000	0.0
34	0x00000000	0.0
35	0x00000000	0.0
36	0x00000000	0.0
37	0x00000000	0.0
38	0x00000000	0.0
39	0x00000000	0.0
40	0x00000000	0.0
41	0x00000000	0.0
42	0x00000000	0.0
43	0x00000000	0.0
44	0x00000000	0.0
45	0x00000000	0.0
46	0x00000000	0.0
47	0x00000000	0.0
48	0x00000000	0.0
49	0x00000000	0.0
50	0x00000000	0.0
51	0x00000000	0.0
52	0x00000000	0.0
53	0x00000000	0.0
54	0x00000000	0.0
55	0x00000000	0.0
56	0x00000000	0.0
57	0x00000000	0.0
58	0x00000000	0.0
59	0x00000000	0.0
60	0x00000000	0.0
61	0x00000000	0.0
62	0x00000000	0.0
63	0x00000000	0.0
64	0x00000000	0.0
65	0x00000000	0.0
66	0x00000000	0.0
67	0x00000000	0.0
68	0x00000000	0.0
69	0x00000000	0.0
70	0x00000000	0.0
71	0x00000000	0.0
72	0x00000000	0.0
73	0x00000000	0.0
74	0x00000000	0.0
75	0x00000000	0.0
76	0x00000000	0.0
77	0x00000000	0.0
78	0x00000000	0.0
79	0x00000000	0.0
80	0x00000000	0.0
81	0x00000000	0.0
82	0x00000000	0.0
83	0x00000000	0.0
84	0x00000000	0.0
85	0x00000000	0.0
86	0x00000000	0.0
87	0x00000000	0.0
88	0x00000000	0.0
89	0x00000000	0.0
90	0x00000000	0.0
91	0x00000000	0.0
92	0x00000000	0.0
93	0x00000000	0.0
94	0x00000000	0.0
95	0x00000000	0.0
96	0x00000000	0.0
97	0x00000000	0.0
98	0x00000000	0.0
99	0x00000000	0.0
100	0x00000000	0.0
101	0x00000000	0.0
102	0x00000000	0.0
103	0x00000000	0.0
104	0x00000000	0.0
105	0x00000000	0.0
106	0x00000000	0.0
107	0x00000000	0.0
108	0x00000000	0.0
109	0x00000000	0.0
110	0x00000000	0.0
111	0x00000000	0.0
112	0x00000000	0.0
113	0x00000000	0.0
114	0x00000000	0.0
115	0x00000000	0.0
116	0x00000000	0.0
117	0x00000000	0.0
118	0x00000000	0.0
119	0x00000000	0.0
120	0x00000000	0.0
121	0x00000000	0.0
122	0x00000000	0.0
123	0x00000000	0.0
124	0x00000000	0.0
125	0x00000000	0.0
126	0x00000000	0.0
127	0x00000000	0.0
128	0x00000000	0.0
129	0x00000000	0.0
130	0x00000000	0.0
131	0x00000000	0.0
132	0x00000000	0.0
133	0x00000000	0.0
134	0x00000000	0.0
135	0x00000000	0.0
136	0x00000000	0.0
137	0x00000000	0.0
138	0x00000000	0.0
139	0x00000000	0.0
140	0x00000000	0.0
141	0x00000000	0.0
142	0x00000000	0.0
143	0x00000000	0.0
144	0x00000000	0.0
145	0x00000000	0.0
146	0x00000000	0.0
147	0x00000000	0.0
148	0x00000000	0.0
149	0x00000000	0.0
150	0x00000000	0.0
151	0x00000000	0.0
152	0x00000000	0.0
153	0x00000000	0.0
154	0x00000000	0.0
155	0x00000000	0.0
156	0x00000000	0.0
157	0x00000000	0.0
158	0x00000000	0.0
159	0x00000000	0.0
160	0x00000000	0.0
161	0x00000000	0.0
162	0x00000000	0.0
163	0x00000000	0.0
164	0x00000000	0.0
165	0x00000000	0.0
166	0x00000000	0.0
167	0x00000000	0.0
168	0x00000000	0.0
169	0x00000000	0.0
170	0x00000000	0.0
171	0x00000000	0.0
172	0x00000000	0.0
173	0x00000000	0.0
174	0x00000000	0.0
175	0x00000000	0.0
176	0x00000000	0.0
177	0x00000000	0.0
178	0x00000000	0.0
179	0x00000000	0.0
180	0x00000000	0.0
181	0x00000000	0.0
182	0x00000000	0.0
183	0x00000000	0.0
184	0x00000000	0.0
185	0x00000000	0.0
186	0x00000000	0.0
187	0x00000000	0.0
188	0x00000000	0.0
189	0x00000000	0.0
190	0x00000000	0.0
191	0x00000000	0.0
192	0x00000000	0.0
193	0x00000000	0.0
194	0x00000000	0.0
195	0x00000000	0.0
196	0x00000000	0.0
197	0x00000000	0.0
198	0x00000000	0.0
199	0x00000000	0.0
200	0x00000000	0.0
201	0x00000000	0.0
202	0x00000000	0.0
203	0x00000000	0.0
204	0x00000000	0.0
205	0x00000000	0.0
206	0x00000000	0.0
207	0x00000000	0.0
208	0x00000000	0.0
209	0x00000000	0.0
210	0x00000000	0.0
211	0x00000000	0.0
212	0x00000000	0.0
213	0x00000000	0.0
214	0x00000000	0.0
215	0x00000000	0.0
216	0x00000000	0.0
217	0x00000000	0.0
218	0x00000000	0.0
219	0x00000000	0.0
220	0x00000000	0.0
221	0x00000000	0.0
222	0x00000000	0.0
223	0x00000000	0.0
224	0x00000000	0.0
225	0x00000000	0.0
226	0x00000000	0.0
227	0x00000000	0.0
228	0x00000000	0.0
229	0x00000000	0.0
230	0x00000000	0.0
231	0x00000000	0.0
232	0x00000000	0.0
233	0x00000000	0.0
234	0x00000000	0.0
235	0x00000000	0.0
236	0x00000000	0.0
237	0x00000000	0.0
238	0x00000000	0.0
239	0x00000000	0.0
240	0x00000000	0.0
241	0x00000000	0.0
242	0x00000000	0.0
243	0x00000000	0.0
244	0x00000000	0.0
245	0x00000000	0.0
246	0x00000000	0.0
247	0x00000000	0.0
248	0x00000000	0.0
249	0x00000000	0.0
250	0x00000000	0.0
251	0x00000000	0.0
252	0x00000000	0.0
253	0x00000000	0.0
254	0x00000000	0.0
255	0x00000000	0.0
