data/default/UD.pt (torch, 313063 bytes, 20 tensors)

layer_1.weight f4 [256, 122]
00000000: ba60 49bd 82d1 1ebd e1ff 70bd 80cc ad3d
00000010: 6073 b63b f8f7 0bbc 4113 60bd dc6f a23c
00000020: df37 0cbd 78be a4bd 60b9 b6bd 4470 993c
00000030: d09e 2d3d 347a f23c 70c5 343c b2bf 1cbd
00000040: ca25 b93d d424 52bd ba07 61bd f4b9 95bd
00000050: d401 4d3d 5851 a83d e4c0 943c 5813 a1bd
00000060: e214 b33d bc9c 513d 0655 63bd 58d9 243d
00000070: 78e6 733d b8c0 9ebc a03c 8dbd 1041 3a3d
00000080: 201e 243d b2d3 32bd e8e1 773d 233f 47bd
00000090: 54d1 4e3d ac63 9d3c c83e 9c3c 609f 853d
000000a0: ca09 b83d 42c1 833d e088 39bd d864 cb3c
000000b0: a8da 133d c3e4 79bd ac0f bc3c 4f9d 99bd
000000c0: f86b 87bd 648f 1f3d a0ea 223d 98ea af3d
000000d0: e757 53bd 250a 07bd 4cf9 d5bc 169e 0c3d
000000e0: c0d1 a83d 18ec 833d 841e d53c 47e7 8ebd
000000f0: f42d a53d 2a77 013d 3fd6 54bd 0a98 9e3d
00000100: 52b1 a0bd b8a7 253d 50e5 b6bd e8d8 443c
00000110: 216f 09bd da4c 26bd e73b 03bd 7c86 a8bd
00000120: 3a0e 02bd e0d0 d4bc c013 f3ba 988b ad3c
00000130: 73e2 1dbd 1ce2 483d 8c6b 883c 64a9 bbbc
00000140: dd3c 3dbd a4ee e83c 6861 9f3c b518 8dbd
00000150: 5e85 44bd b265 823d f88b 35bc 7837 113c
00000160: db75 a1bd 2db2 21bd 701a 093d 59ac 6fbd
00000170: 24cd 5d3d c017 7c3d acf3 4cbd c4d5 9fbd
00000180: acb0 5a3d f41b 863d 1894 423d e492 a8bd
00000190: 32f3 a0bd b284 053d 0e82 49bd 4d7b 55bd
000001a0: e2dd 8b3d b6b4 b3bd 84f6 393d 485b a9bc
000001b0: 4c19 b13d 28fd 353c 1886 553c cec9 803d
000001c0: fb11 32bd 40d5 ac3d deaf a5bd 44ec 303d
000001d0: 1c25 253d 06b6 b33d 004d 963a 581f cbbc
000001e0: 8039 523a 105a cbbb 3466 f33c d708 03bd
000001f0: 6d06 26bd c8e5 813d 485a fc3c 5272 3abd
00000200: c030 993d 7c5e 863c 6f35 97bd 27bc 76bd
00000210: b376 9abd 80d8 91ba 102d 88bb 80c4 133d
00000220: 408b 3ebc 7865 313d 810f 96bd 086e f03c
00000230: a863 553d 560e 44bd a822 813d e85f 76bc
00000240: 601a 72bc eca5 bcbc 61f0 2fbd b434 52bd
00000250: f2d6 803d aa0d 9b3d c587 81bd ec08 573d
00000260: c854 5e3c 8cf3 73bd 804a fc3a 6066 7e3d
00000270: 300d d63c 0097 e339 503d a93b b908 a7bd
00000280: 347b d9bc 0005 85bd 0de7 9ebd c040 f93c
00000290: 21f4 33bd bc2c 0a3d 280e a83c a8d9 803c
000002a0: 881a 133d e834 14bc 9c74 fe3c 8798 63bd
000002b0: 3090 e93c 3dbc 36bd 8f9a 88bd 08fd 763c
000002c0: bf05 97bd 4df8 90bd c40c 1e3d 4c1a 8abd
000002d0: 6430 7b3d 780a 2c3c 49b1 b7bd 3ae3 a03d
000002e0: 4069 8aba 841e 89bc 7d10 99bd e870 2a3d
000002f0: 3287 823d 1cee a03c 38ec e8bc 7612 9d3d
00000300: f03f a9bb 2428 ab3d ac4a 403d 5f3b 5ebd
00000310: 76e7 b73d 0833 c03c e2c0 92bd f3d1 08bd
00000320: c4dc b63d d08b 28bc 5485 40bd 8c0e 8f3c
00000330: 9025 ea3c 28fa 953c 591c 8fbd 130e 87bd
00000340: 6af8 863d a835 863d 6f90 9cbd d546 46bd
00000350: 98b4 e1bc 003d edbb 7087 293d 353f a0bd
00000360: 70ab 85bb aeab 84bd dc35 513d c492 93bd
00000370: fa1a 27bd f09d c53b ec2d 2f3d 004a 393b
00000380: 2da2 7cbd d059 d13b 76f8 abbd 286b 1b3c
00000390: 4095 b43d d909 71bd 0916 71bd 009f 3b3a
000003a0: b422 d1bc 5057 263c cc05 463d 748f 853d
000003b0: e3f0 a3bd c208 a63d b0b1 7abd 1c69 a23c
000003c0: 88c2 413c 425e ac3d 4c65 a13d fcdc b8bc
000003d0: c6d9 8f3d db35 b7bd 8728 2cbd 8478 7cbd
000003e0: a8a4 553d 04a5 4b3d 7bb8 b4bd 00f7 b139
000003f0: 6a28 b33d 9090 4e3c c8a0 0ebc d4ff ae3c
-0.04916451 -0.03877402 -0.058837775 0.08486271 0.005567953 -0.008543007 -0.054705862 0.01982873
-0.03423297 -0.080441415 -0.08922076 0.01873029 0.042387784 0.029599287 0.011033401 -0.038268752
0.09040411 -0.051304653 -0.05493901 -0.07310858 0.05005057 0.0821864 0.018158384 -0.07865018
0.087442175 0.051174864 -0.055501007 0.040246338 0.059545964 -0.019379005 -0.06896329 0.045472205
0.040067792 -0.04365892 0.060518175 -0.048644196 0.0504926 0.019212566 0.019072905 0.06524539
0.08986242 0.064333454 -0.04529655 0.02482836 0.0360972 -0.06100918 0.022956692 -0.07500707
-0.0661239 0.038955107 0.039774537 0.08589667 -0.051597502 -0.03296866 -0.02611985 0.03433045
0.08243132 0.06441516 0.026015528 -0.069777064 0.080654055 0.031607784 -0.051962133 0.07743843
-0.07846321 0.040443152 -0.08930457 0.012014605 -0.033553246 -0.040600635 -0.03203955 -0.08228776
-0.03175185 -0.025978506 -0.0018545315 0.021184728 -0.038546037 0.04904376 0.016652845 -0.02290792
-0.046200622 0.028434105 0.019455627 -0.06889478 -0.04797875 0.06367053 -0.011080734 0.008863322
-0.07883807 -0.039476562 0.03347248 -0.058513973 0.054150715 0.061546087 -0.05003707 -0.078044444
0.053391144 0.065483004 0.047504514 -0.08231142 -0.07858886 0.03259725 -0.049196295 -0.052119542
0.0682943 -0.08774702 0.04540111 -0.02067341 0.08647403 0.01110772 0.013032459 0.06288491
-0.04347418 0.08439112 -0.08090185 0.04319407 0.040318593 0.087749526 0.001146704 -0.02479522
0.00080194324 -0.0062058046 0.02971182 -0.031990852 -0.04053347 0.063426554 0.030804768 -0.04551918
0.074800014 0.016402476 -0.073832385 -0.06023803 -0.07542171 -0.0011127144 -0.0041557625 0.03607607
-0.0116298795 0.04330966 -0.07327176 0.029349342 0.052096993 -0.047865234 0.06305438 -0.015037514
-0.014776796 -0.023028336 -0.042953853 -0.051319793 0.062909976 0.075709656 -0.06324724 0.052498743
0.013570018 -0.059558436 0.0019248277 0.06210935 0.026129335 0.00043409318 0.0051647797 -0.081559606
-0.026548006 -0.06495094 -0.07758913 0.030426383 -0.04393399 0.03373407 0.020514563 0.015728787
0.035913974 -0.009045817 0.031061463 -0.055565383 0.028511137 -0.04461311 -0.06670105 0.015074976
-0.07374143 -0.070786096 0.038586393 -0.06743297 0.061325446 0.010500543 -0.08969361 0.0785584
-0.0010559931 -0.016738184 -0.07473848 0.041611582 0.06373443 0.01964479 -0.02843295 0.07669537
-0.0051650926 0.083572656 0.046946213 -0.05425584 0.089796945 0.023461834 -0.07165696 -0.03340335
0.089288265 -0.01028724 -0.04700215 0.017462991 0.028582364 0.01830776 -0.06987829 -0.06594481
0.0659035 0.06553203 -0.07644736 -0.048407394 -0.027551934 -0.007239938 0.04138893 -0.07824556
-0.004079275 -0.06478058 0.051076755 -0.07205728 -0.04079721 0.0060307905 0.042768404 0.0028272867
-0.0616781 0.0063888803 -0.083969995 0.009485997 0.0881753 -0.058847282 -0.058858905 0.0007157177
-0.025529243 0.010152653 0.048345372 0.06521502 -0.0800493 0.08107139 -0.061204612 0.01982551
0.011826165 0.08416416 0.07880649 -0.022566311 0.07023959 -0.08945819 -0.042030837 -0.06163837
0.05215898 0.049717918 -0.08824249 0.000339441 0.08747943 0.012607709 -0.008705325 0.021362223

layer_1.bias f4 [256]
00000000: a21a 933d b83f 163d 8d8d 6fbd 380d 7e3c
00000010: a01b 6abc 9eab 96bd a054 ad3d f019 003d
00000020: 6ca9 853d 7006 b43d 44cc 97bc 3863 88bd
00000030: b079 ffbc 86f8 53bd 60f1 8e3d 00b7 403d
00000040: 1db8 8ebd f4c1 123d f626 8abd 8ceb 42bd
00000050: 3673 823d ba77 85bd 7a14 56bd f81a 4f3d
00000060: a287 edbc 24d6 e3bc fa9a 9e3d cb8a b4bd
00000070: 722d b4bd 246d a33c 7420 673d c0dc 383d
00000080: 5d36 b9bd eaa8 833d 0ac3 b33d 3b9b b1bd
00000090: 6c9a 82bd 443b 753d f117 9fbd 8011 e73c
000000a0: c00d fa3b cbd3 6dbd d0b7 423d 0cde a23d
000000b0: 4cb2 883d fcb9 ccbc 00d1 103d ac3e 9b3d
000000c0: c37c 8abd 0cd9 7d3d b8cf 83bd 1428 a93c
000000d0: 00ac fcbb 70f4 e2bb 0cb7 953d 9b50 57bd
000000e0: 0b4b 50bd 002b bfbc 805f dd3a 0134 84bd
000000f0: 4498 903d 2473 81bc 3832 063d c832 49bc
00000100: 0caa a43c 8ec5 86bd 7419 9bbd 4ae7 8b3d
00000110: be84 7ebd eeba 9c3d 1554 b7bd f9ef 93bd
00000120: 9351 93bd e01c a43d c04e 673d 4135 6dbd
00000130: c057 223b f03b 8c3c e8c6 aabd 64f4 dfbc
00000140: fdd8 57bd 9826 a73c fca2 a33c 88fd 893d
00000150: d13b 24bd f294 b6bd bc38 2f3d c625 63bd
00000160: 48e9 5f3d de7c b4bd 723d b8bd 0e13 aa3d
00000170: c44f 9c3d 00fb 97b9 fb2d 79bd 30ff 3f3c
00000180: f81c b43c b84b 6dbd e222 813d 8e37 873d
00000190: 9854 5cbd 8e27 b53d fca3 7f3d b0f6 a73c
000001a0: d461 87bc 2086 a63b aa73 8bbd 009c de39
000001b0: ced3 a43d 7c01 873d 3fb7 0dbd 0873 af3d
000001c0: e41a 743d 46b2 5abd c8e8 553d c8f6 903d
000001d0: 04a5 aa3c c27d 06bd df5a 9cbd 4ad1 4cbd
000001e0: b4ae b73c 4093 463d 5093 573d fc15 8c3c
000001f0: 0c52 93bc d9ee abbd d044 573d 709d 543d
00000200: 90a4 6ebc 52bc a4bd aa0f 4abd c212 43bd
00000210: d067 bb3c 8cc7 83bd 1480 86bd 74ce 223d
00000220: a028 c6bc 027a 81bd 48a9 f73c 3858 ec3c
00000230: 10fe 643d 200a 703d 2ee0 eabc 104e ab3c
00000240: c6f1 0c3d ea5c a0bd 9131 b5bd cc30 c63c
00000250: 80f9 b83c 5528 6dbd d4b1 a53d fc5a a5bd
00000260: bf95 51bd 8cab 36bd 3919 61bd a0ec 403d
00000270: bb43 15bd 1c33 b1bc 2cb7 08bd 20ab 92bc
00000280: 54c4 9fbd de10 e9bc 004e 6abc e05f f0bb
00000290: 3025 393d a9cb 15bd 5cdd 2abd 88d0 8c3d
000002a0: d0cf 6d3c c4ee 563d a771 9cbd 04d2 62bd
000002b0: 7a37 82bd d82d 633c 4c36 a1bc 00f7 c43a
000002c0: cacd 903d a205 aa3d e021 a63c 04c2 f23c
000002d0: 846d 91bd d4eb 2c3d 6064 b63d 2c75 3a3d
000002e0: 1001 c63b 644c 333d f4c5 0a3d 4ba9 22bd
000002f0: 409a 2c3d b8b8 2e3c dc63 2c3d 7c1f 48bd
00000300: 7047 4cbd 745d cabc 92d6 003d 4cbc 483d
00000310: e46c f0bc fd78 a4bd 14a1 ab3d 005e 9ebc
00000320: d8f7 c6bc 4856 0f3d 91d7 87bd d7f2 35bd
00000330: 4cf2 9ebd cccf 3a3d 00a1 ddba ebab 40bd
00000340: a0eb 9d3d 38cf 97bd 5af6 3fbd 6d6d acbd
00000350: 2803 00bd 12a6 b63d c7fa 99bd 9e29 9f3d
00000360: ac66 cfbc a22c b83d a067 42bb 50bf cfbb
00000370: d30a 25bd a198 57bd 6714 9fbd b004 1d3c
00000380: 149e bbbc b45e 8a3d b0a1 dbbb fa00 ab3d
00000390: 4706 30bd c85f 783d 0c6b 32bd ebde 58bd
000003a0: 04bf 533d 541d 0a3d 326f a5bd d436 c9bc
000003b0: 3e06 9bbd 1003 f4bc f43a f5bc d424 e1bc
000003c0: c0f8 7abc eedc abbd 785b ab3c 3466 91bd
000003d0: 20e2 5d3d a8a6 1d3d 68e0 66bd 2e59 973d
000003e0: f467 813d c0af 9ebc 4b20 b8bd 8eaf 823d
000003f0: 3489 9a3c 3c90 e63c 98fc c8bc 887a 8f3d
0.07182814 0.03668186 -0.058484603 0.015506081 -0.014288813 -0.07356952 0.084634066 0.031274736
0.06526455 0.0879029 -0.018530019 -0.066595495 -0.031185955 -0.051750682 0.069796324 0.047049522
-0.069687106 0.0358295 -0.067457125 -0.047587916 0.06369631 -0.06516977 -0.05226562 0.05056283
-0.028995339 -0.027812071 0.07744403 -0.08815535 -0.087977305 0.019949503 0.056427434 0.0451324
-0.09043572 0.06428702 0.08777435 -0.08672186 -0.0637711 0.059870973 -0.07768238 0.028206587
0.0076310337 -0.05806331 0.04753858 0.07952508 0.066746324 -0.024991028 0.035355568 0.07580313
-0.06762078 0.06197457 -0.064361036 0.020648994 -0.0077109337 -0.006926112 0.07310304 -0.052567106
-0.050852817 -0.023335934 0.0016889423 -0.064552315 0.07060292 -0.015801974 0.032762736 -0.012280174
0.020100616 -0.06580649 -0.07573214 0.06831224 -0.06213831 0.076528415 -0.08951584 -0.072235055
-0.071932934 0.0801332 0.056471586 -0.057912115 0.0024771541 0.017118424 -0.083387196 -0.027338214
-0.05269717 0.020404145 0.019975178 0.067378104 -0.040096108 -0.08915128 0.042778715 -0.055455945
0.054665834 -0.08812879 -0.08996095 0.08304416 0.076324016 -0.00028987974 -0.060834866 0.011718556
0.02198647 -0.05793354 0.063054815 0.06602393 -0.053791612 0.08845435 0.062412247 0.020503372
-0.01652614 0.005081907 -0.068091705 0.0004245937 0.08048211 0.0659208 -0.034598585 0.08566862
0.059595957 -0.05339267 0.05222395 0.0707832 0.020830639 -0.032834776 -0.0763452 -0.05000428
0.022422172 0.048480272 0.052630723 0.017100327 -0.017983459 -0.08395166 0.05255586 0.051907957
-0.014565602 -0.08043732 -0.049331345 -0.04762531 0.02287665 -0.06434545 -0.06567398 0.03974767
-0.024189293 -0.06322099 0.030232087 0.02885066 0.055906355 0.058603406 -0.02867135 0.020911247
0.03441026 -0.07830222 -0.08847345 0.02419319 0.022579908 -0.05789979 0.08090559 -0.080739945
-0.0511682 -0.044597194 -0.054955695 0.047100663 -0.036441546 -0.021630816 -0.03337781 -0.017903864
-0.078011185 -0.028450426 -0.014300823 -0.007335648 0.04520148 -0.03657118 -0.04171501 0.06875712
0.014514878 0.0524738 -0.07638865 -0.055376068 -0.063582376 0.0138659105 -0.019679211 0.0015027225
0.07070501 0.083018556 0.020279825 0.02963353 -0.071009666 0.04221709 0.08905864 0.0455219
0.006042607 0.043774024 0.03388019 -0.03971223 0.04213929 0.010664158 0.04208742 -0.04885815
-0.049872816 -0.024702765 0.03145463 0.0490077 -0.029348798 -0.08030889 0.083803326 -0.019331932
-0.024288103 0.034994394 -0.06632913 -0.044421043 -0.07761058 0.045608327 -0.0016908944 -0.047038954
0.077109575 -0.07412571 -0.0468658 -0.08419309 -0.03125301 0.08918394 -0.07518535 0.0777161
-0.025317512 0.08992888 -0.0029663816 -0.006339945 -0.040293526 -0.052635793 -0.07767563 0.009583637
-0.022902526 0.067563444 -0.0067026243 0.08349796 -0.042974737 0.06063822 -0.04355912 -0.052946966
0.05169584 0.033719376 -0.080778494 -0.024562277 -0.0756955 -0.029786617 -0.029935338 -0.027483381
-0.015318096 -0.08391748 0.02091764 -0.07099572 0.054170728 0.038489014 -0.056366354 0.073900566
0.063186556 -0.019370914 -0.089905344 0.06381141 0.018864252 0.028144948 -0.024534509 0.07005793

layer_2.weight f4 [128, 256]
00000000: 6eb4 29bd b09c 6fbd 0241 59bd 3aae 63bd
00000010: 52a6 4f3d c4d6 e03c e0d0 23bd 7c61 793d
00000020: e8b5 c0bc 1024 7d3c 0038 f339 f8bb 4abc
00000030: 4cf4 a13c a447 a7bc 9acc 17bd 4608 6dbd
00000040: c891 7fbc e4be 113d 5c2d f43c 6cc7 60bd
00000050: 00f1 bf3c c07c 68bc 3231 7fbd 18c1 40bc
00000060: a068 5c3b 8037 c2ba 904e 883c 40ee 5f3c
00000070: 1472 11bd 7e4f 753d 20b5 88bc 4096 f53c
00000080: 0ef9 68bd 060f 79bd b674 27bd 94a4 4cbd
00000090: 080d 6a3c b845 323c b873 5e3d 4e09 3d3d
000000a0: 22e0 74bd bcd0 2cbd 1ac5 55bd d8bf ddbc
000000b0: 785f 4c3d 689c 933c 34df f2bc c248 303d
000000c0: 404a 43bb 8e55 26bd 28dd 4cbd 08bf da3c
000000d0: 8822 99bc 880d 38bd ec0b 37bd 58d2 21bc
000000e0: 86fa 32bd 709c b53b 142a fa3c b0ec 29bc
000000f0: 98f7 6ebd f2d2 03bd 982b c6bc 9031 b4bc
00000100: c6cf 4abd f8ab 67bc 941a 70bd a074 63bd
00000110: 363c 52bd 88d8 173d c877 0b3d ea2f 0bbd
00000120: c88c 01bc 4619 3abd 8cd6 69bd ea6e 6ebd
00000130: 424d 203d b672 1c3d b01a 80bb 84f2 483d
00000140: 4062 e8ba 90eb b23b 9ea8 263d 90f8 7bbd
00000150: 305b 06bd 8c39 a43c 4228 31bd 1e3d 383d
00000160: 10db e9bb 509e 4f3d 14cc 103d ecb9 4b3d
00000170: d4ae 3dbd d233 6bbd 2038 36bc d8d0 4c3d
00000180: 3615 0fbd 20f7 60bb a02f 533d a222 65bd
00000190: 26e8 483d 5ce2 14bd b0f9 69bd 40c9 4dbd
000001a0: be8d 2bbd 4077 dbba a810 b4bc 38f0 59bc
000001b0: 3281 0dbd 00b9 a33b 8057 a63c 388b cbbc
000001c0: f854 19bc 428c 5fbd 62ed 58bd caa7 4dbd
000001d0: 14bf a93c 4e73 423d ae8d 0a3d d02c 86bc
000001e0: 6840 dfbc 0003 a4b9 80af efba 843c 403d
000001f0: cc50 c73c d4d1 1fbd b0a6 55bc d2ec 5bbd
00000200: f064 9ebc 18c8 12bd 8c1e be3c 7e5c 3e3d
00000210: f6b1 653d b0e9 4dbc 88e6 6c3c e428 13bd
00000220: 4eef 7a3d 0457 a33c b804 f0bc f4e2 a7bc
00000230: ca26 603d aa98 563d eecf 163d 08ad 833c
00000240: 5e3a 463d 44e9 843c 44b7 01bd fe58 783d
00000250: 4017 4d3b 68c9 74bd d883 ab3c 7007 33bc
00000260: 8aa1 1dbd 58d3 c43c a41d 833c 16e5 64bd
00000270: c099 b93b 96b7 7f3d ce4d 77bd a087 383d
00000280: 245c 603d 507f fb3b e4ee c93c baf9 2bbd
00000290: 20ed 0dbd 1ec5 4ebd 0066 693d 0ca7 d63c
000002a0: 7e28 16bd 00a0 383c c0b4 2c3d 4c32 febc
000002b0: 7660 383d 084a 87bc e693 41bd 6086 843c
000002c0: 4c7a 4c3d 802a 13bc 842d 293d 24a7 e5bc
000002d0: b442 193d 0871 163d f817 5c3c bc59 153d
000002e0: 8006 25bb 6c8e 0b3d c848 5fbd c4d2 c2bc
000002f0: 807d 1bbb 0426 1cbd 0e37 34bd 88ef 393c
00000300: 24fa 6f3d b078 22bd 302c 6bbc e4f5 513d
00000310: 00fe 45ba 1877 76bd e070 c1bb 66f9 47bd
00000320: 409f 70bd 347d 3d3d d213 13bd 64eb ebbc
00000330: fccb 1d3d ec84 08bd ac6e 503d 1816 323d
00000340: b6f9 52bd 70e1 cf3b e813 c2bc a03c 3d3c
00000350: d227 3ebd 305e f93b fad3 28bd c088 73bd
00000360: 2ab7 54bd d86c 333c 5ce7 cbbc 4e5b 4c3d
00000370: 6a72 2cbd 007c 5bbb 78ca 57bc fcc1 15bd
00000380: b872 08bd 5095 11bc c079 d23b dc1e 8ebc
00000390: 8044 0f3b 5660 6fbd b48c bdbc e852 80bc
000003a0: 58cf 303d 8437 e63c bed5 27bd 6cc6 95bc
000003b0: 8cf0 1dbd 0c57 1dbd f8d2 31bc 58c8 96bc
000003c0: 8659 443d 301d d13b 3489 1b3d 5c5d ffbc
000003d0: c060 68bc 805a 443c c0fb aebc acaa b3bc
000003e0: 867c 0ebd 8653 0cbd d8a5 4d3d aac2 1c3d
000003f0: c08d 96ba 60e6 4d3d 209e 7c3d 38cb f1bc
-0.041431837 -0.05849904 -0.053040512 -0.055586077 0.050695725 0.027446158 -0.03999412 0.060883984
-0.02352424 0.0154504925 0.00046390295 -0.012373917 0.01976981 -0.020419903 -0.037060358 -0.05786922
-0.015598722 0.035582438 0.029806785 -0.054877684 0.023430347 -0.014189899 -0.062302776 -0.011764787
0.0033631697 -0.0014817566 0.016639024 0.013667643 -0.035509184 0.059890263 -0.01668793 0.029978871
-0.056878142 -0.060805343 -0.04088279 -0.04996164 0.014285333 0.01088088 0.054309577 0.04615145
-0.059784062 -0.042191252 -0.052189924 -0.027069017 0.049895734 0.018018916 -0.029647447 0.043038137
-0.0029798895 -0.040608935 -0.0500156 0.026702419 -0.018693224 -0.04493478 -0.044689104 -0.00987681
-0.04369595 0.0055423304 0.030537643 -0.010371372 -0.058341593 -0.032183595 -0.024190709 -0.02199629
-0.049514554 -0.014140122 -0.058619097 -0.055531144 -0.051326953 0.037071735 0.03404978 -0.03398124
-0.0079071 -0.04543426 -0.057089373 -0.058211245 0.03913618 0.038195334 -0.0039094314 0.049059406
-0.0017729476 0.00546021 0.04068815 -0.061516345 -0.032801807 0.020046972 -0.043251283 0.04498016
-0.00713671 0.050688088 0.035350874 0.049737856 -0.046309307 -0.057422467 -0.01112178 0.050003856
-0.034932338 -0.0034326985 0.05155909 -0.05594123 0.04904952 -0.036348686 -0.057122886 -0.050240755
-0.041883223 -0.0016743913 -0.021980599 -0.0133019015 -0.03454704 0.004996419 0.020305395 -0.024846658
-0.009358637 -0.05457712 -0.05296076 -0.050208844 0.020720996 0.047473244 0.033826523 -0.01637879
-0.027252391 -0.00031282753 -0.0018286556 0.046932712 0.02433052 -0.039018467 -0.01304023 -0.053692646
-0.01933524 -0.035835356 0.023207925 0.046474926 0.05607792 -0.0125679225 0.01445926 -0.03592767
0.061263375 0.019938953 -0.029299125 -0.020493962 0.054724492 0.052391686 0.03681939 0.016073719
0.048395507 0.016224511 -0.031668916 0.060631745 0.0031294376 -0.05976239 0.020936891 -0.010927066
-0.038484134 0.024026558 0.016005345 -0.055882536 0.0056640804 0.06243094 -0.060376935 0.045051217
0.054775372 0.007675089 0.024650045 -0.041986205 -0.03464997 -0.050480954 0.05698204 0.026202701
-0.03665971 0.011268616 0.042164564 -0.031029843 0.045013867 -0.016514793 -0.047260188 0.016177356
0.04992132 -0.008982301 0.041303173 -0.0280338 0.03741713 0.03672889 0.013433449 0.03646253
-0.0025180876 0.03407137 -0.05451277 -0.023782142 -0.0023725927 -0.038122192 -0.043997817 0.011348613
0.058588162 -0.039665878 -0.014353797 0.05125989 -0.00075528026 -0.06017217 -0.0059033483 -0.04882183
-0.058745623 0.04626198 -0.035907574 -0.028798766 0.038524613 -0.03332989 0.050886795 0.0434781
-0.051507674 0.006344013 -0.023691133 0.011550099 -0.046424694 0.007610105 -0.04121778 -0.059456587
-0.05193249 0.010951243 -0.024890594 0.049891762 -0.0421013 -0.0033490658 -0.013170831 -0.03656195
-0.03331253 -0.0088856965 0.006423205 -0.0173487 0.0021860898 -0.058441482 -0.023138382 -0.015664533
0.04316649 0.028102644 -0.040975325 -0.018283091 -0.03855948 -0.038413092 -0.0108535215 -0.018406078
0.04793694 0.0063816532 0.037972644 -0.031172447 -0.014183223 0.0119844675 -0.021360278 -0.021931969
-0.034786724 -0.03425934 0.05020699 0.038271584 -0.0011486337 0.05026853 0.061674237 -0.029515848

layer_2.bias f4 [128]
00000000: 7a6f 3cbd 28d7 253d e85d 663c 3eea 7b3d
00000010: aed0 413d fcfe debc f441 dcbc 18e7 f43c
00000020: fad9 69bd fc9e a4bc d892 61bd f022 123c
00000030: 822b 0cbd f89c 553c d033 033d 0c66 553d
00000040: 9037 f5bb e883 20bc 2c7d 9cbc 4ca9 38bd
00000050: c0cb 1b3c e070 5bbd 0054 d0bb 80ac 863a
00000060: 781f 373d dee0 70bd a486 37bd b6b6 7d3d
00000070: 0094 6b3d 4a4d 4bbd 123b 4a3d 065f 483d
00000080: f891 09bd 78e1 3f3d fcfb 473d 2c9e 72bd
00000090: 9040 c23c 3052 f93c 800a b5ba 9ae1 1abd
000000a0: b4c7 03bd bc29 3d3d 3061 c6bc 68e4 733c
000000b0: 1007 a73b 48f6 993c c08d 5c3c 1645 33bd
000000c0: 30d3 3b3c 3489 613d 5426 7b3d 4c12 4f3d
000000d0: d87a d23c 40a5 bc3c 3cfd 9fbc 70de 703d
000000e0: 3ebc 44bd 40e9 f0ba 20c5 053d e805 733d
000000f0: 7abf 343d c2f9 6dbd 0ed8 26bd 5853 8d3c
00000100: b057 f7bb 1094 2dbd ec00 ea3c 20fd 8ebb
00000110: f072 803c 984c c9bc 1612 1abd 105b d4bb
00000120: 269b 5fbd 381f 5dbd 5c0f 6cbd b881 393d
00000130: 601f 253b c8a2 043c 6e68 61bd c01f d0ba
00000140: 4836 9d3c 10d5 9abb 80ae 6bba 369b 083d
00000150: c0a4 e6bc bea7 6dbd dc66 df3c 3872 8dbc
00000160: 60b2 1c3c 6443 1a3d 00f0 beb8 ba3c 4cbd
00000170: 50c2 673d c0a7 77bc 58da 38bd 8082 fc3b
00000180: 50ab 18bc d44d 0bbd dcda 07bd f4bf 49bd
00000190: d69a 4d3d 0afb 49bd 7430 c23c 9ed0 063d
000001a0: e8ab cf3c c895 ca3c 90e6 2f3d bc37 32bd
000001b0: 9077 b93b 0089 3abc 0635 553d 189f 01bd
000001c0: 7013 f6bc a62f 31bd c8da 723d 5a76 523d
000001d0: f8e7 63bc 0082 6c3b eeb4 3f3d 3c5b 853c
000001e0: 1277 61bd aa90 483d d4c8 f6bc 745d 1f3d
000001f0: 1005 683d b66c 4abd d888 e03c 803c cb3c
-0.04600475 0.040488392 0.014060475 0.061502688 0.047318153 -0.027221195 -0.026886918 0.02989535
-0.057092644 -0.02009534 -0.05507168 0.008919463 -0.03422118 0.013037913 0.032031834 0.052099273
-0.00748343 -0.009797074 -0.019102655 -0.04508333 0.009509027 -0.053574443 -0.00635767 0.0010274798
0.044707745 -0.0588082 -0.044806138 0.061941825 0.05751419 -0.049634255 0.04937274 0.048918746
-0.033586472 0.046845883 0.048824295 -0.059232876 0.023712426 0.030434698 -0.0013812333 -0.037812807
-0.032172874 0.04618238 -0.024216264 0.014885999 0.0050972775 0.018794194 0.01346153 -0.043767057
0.011463925 0.055062488 0.06131585 0.05055456 0.025693342 0.023028016 -0.019529931 0.058805883
-0.048031084 -0.0018380061 0.032658696 0.059331805 0.04412792 -0.058099516 -0.04073339 0.017251655
-0.007548295 -0.04237753 0.028564893 -0.004363671 0.015679806 -0.024572656 -0.037614904 -0.006480582
-0.05459132 -0.05398485 -0.057631835 0.045289725 0.0025195703 0.008095451 -0.055031233 -0.0015878603
0.019190922 -0.004725106 -0.0008990541 0.033351146 -0.02815473 -0.0580213 0.027270727 -0.017266378
0.009564012 0.037661925 -9.1046095e-05 -0.0498626 0.056581795 -0.015115678 -0.045130104 0.0077059865
-0.009318188 -0.03400977 -0.033167705 -0.049255326 0.05019649 -0.049311675 0.023704745 0.032913797
0.025350526 0.024729624 0.04294449 -0.043510184 0.005660005 -0.011385202 0.05205252 -0.031645864
-0.030038565 -0.04325833 0.059290677 0.0513824 -0.013910286 0.0036088228 0.046803407 0.016278856
-0.055045195 0.048966087 -0.03012506 0.038907483 0.056645453 -0.04942008 0.027409002 0.024809122

layer_3.weight f4 [64, 128]
00000000: f8cb 3d3c 7523 9f3d c3b0 893d d831 9cbd
00000010: be9a 3e3d 8018 753a 7ffa a53d 06ab 32bd
00000020: 0c71 ecbc 7c6c 8a3c 00e8 41bb d4b0 98bd
00000030: 66c3 afbd b9f8 33bd 1d8f abbd 3afb 703d
00000040: 6040 a4bb 17e1 9ebd 8011 c6bb 088c 4b3c
00000050: 96b1 6a3d fc0c f03c 412f afbd b791 9a3d
00000060: 8250 263d a9fc a83d 440b 913c 2338 853d
00000070: 4ce6 acbd b220 563d f828 18bc 2dd6 b4bd
00000080: a548 913d cffe 4fbd 1fdc b43d 9d2b 21bd
00000090: 631b 6abd 067d 4b3d f281 adbd 796d 2ebd
000000a0: 101f a43c 28e7 1cbd 8efd ddbc 9cae 8fbc
000000b0: 048c 123d beaf 4c3d 108a 61bc 1a78 103d
000000c0: 2c95 f5bc e8d6 cb3c 1e16 80bd 87ef 833d
000000d0: 1227 003d a44f b53c a7dd aa3d ba1e 6f3d
000000e0: e0f7 133c 6641 093d 59d3 09bd c0a9 0e3b
000000f0: 34f2 833c 75c0 b43d f8df cbbc 845e c0bc
00000100: 983b a3bc 174c 5bbd ccb7 85bd 78cc 0abc
00000110: fc96 b93c a26c 83bd 7eea 053d 6be7 9b3d
00000120: 62d6 733d 803f aebb 4709 3ebd 028c 693d
00000130: 983d 893c 73af 8bbd 3a5d 603d 3300 883d
00000140: a8c5 0d3d 4ab6 493d a86d 9a3c e54e a73d
00000150: 06f7 7d3d 7270 133d 8507 10bd ae8f 353d
00000160: bec6 0f3d 243c 80bc 8338 a33d 14bf bdbc
00000170: 7a81 6b3d e67d 533d 57c9 24bd ba37 f0bc
00000180: 2c13 91bc 8eb8 7fbd ca35 3abd ecbb f6bc
00000190: c5e6 5bbd 2c8c 813c 7cce 35bd 1a6d 2dbd
000001a0: 17ff a83d c0f8 b4bb 592e 8cbd 4811 423c
000001b0: 34eb a53c a569 9ebd 9c4a 853c a452 2bbd
000001c0: a411 55bd d023 a2bd 0655 4c3d ec2a 99bd
000001d0: 10ce bd3c f105 9e3d 3651 5d3d b259 283d
000001e0: 76a4 7cbd 2bee 833d 964b 1dbd a9a7 5dbd
000001f0: 0836 a43c a06e 3dbb f149 8abd 00f8 023b
00000200: 6ee5 383d a3f9 a2bd b3d4 06bd e2a7 663d
00000210: 6ebe afbd b528 34bd e1aa b03d df57 50bd
00000220: c071 c83a 5862 a2bc 3847 4abd ccfa fe3c
00000230: 10dc bfbb 5c9e a3bc 53be b1bd 80e5 053a
00000240: 00e4 9abd 3ab1 afbd 402b 123b fdc9 48bd
00000250: ef83 3fbd 8034 933a c229 593d ea09 a9bd
00000260: 61a6 31bd 7463 f03c bdbf 963d 60e8 87bd
00000270: 0538 b23d 6bd0 893d fccb 9abc 2a98 efbc
00000280: a652 203d fc83 c93c 3ee1 733d 6a47 3b3d
00000290: add1 933d 98f9 033c 6e6e 35bd a8a9 c73c
000002a0: e3fe 8c3d 20cb 85bd dbb2 9b3d fa74 243d
000002b0: a674 203d 801d ca3b 1b3d a7bd 48e8 99bc
000002c0: 5816 8dbc f2b7 113d cd98 a23d 0291 503d
000002d0: f6fd 24bd 1cf7 d33c e2bf 19bd 4957 923d
000002e0: e900 aebd 47a4 a13d 113c 3cbd 4dfc 913d
000002f0: 51a7 a9bd dc50 bcbc 04b1 ccbc 8258 563d
00000300: 388d e83c 5f87 943d 302f bfbb 88c7 49bc
00000310: 97c8 a0bd 4078 d4bb 6de8 863d 93b1 78bd
00000320: 23ce 19bd 90f4 b53b 6812 46bc 5e08 5cbd
00000330: 5ed6 f8bc 97b9 a63d 4a63 2c3d cebf 2e3d
00000340: a90f ac3d e2eb 633d cc83 c83c 87b4 4fbd
00000350: d45f 71bd a102 44bd 8472 fbbc 9273 97bd
00000360: 3ba7 9f3d 0daf aabd 195a 2fbd e814 813c
00000370: 6296 5c3d 8255 83bd 175c b13d d8c2 0b3d
00000380: e756 21bd bd1b 75bd f4bd 92bc a5b5 1fbd
00000390: 6deb b2bd bd50 29bd 1e80 303d 289e 863c
000003a0: 4833 68bc a06c 453c 4c34 fe3c 1031 973c
000003b0: fa48 503d 4b9a 9b3d 604e b5bc 82d5 763d
000003c0: c04b ddba eac1 373d ecf5 9c3c c8c5 15bd
000003d0: 1b76 9c3d 8c3c 91bd fc54 c5bc 6a5d 1cbd
000003e0: a79e 34bd 115f ae3d 3e9e a1bd 1cce 11bd
000003f0: 9056 82bd f170 a93d 602a 9a3c 4206 533d
0.0115842745 0.07770435 0.06723168 -0.076266944 0.046534292 0.0009349659 0.08104419 -0.043620132
-0.028862499 0.016897433 -0.0029587746 -0.07455602 -0.08582191 -0.043938372 -0.08376906 0.05883334
-0.005012557 -0.07757776 -0.0060445666 0.012423523 0.057298265 0.029303066 -0.08553935 0.07547324
0.040604122 0.08251316 0.017705567 0.06504848 -0.08442363 0.052277274 -0.009287111 -0.08829913
0.07093934 -0.050780114 0.08831047 -0.039348233 -0.057155024 0.04967978 -0.08472051 -0.04258487
0.020034343 -0.038306385 -0.027098443 -0.017539315 0.03577806 0.04997229 -0.013765827 0.035270788
-0.029978357 0.024882749 -0.062542185 0.064421706 0.03128726 0.022132702 0.08343058 0.058378913
0.009031266 0.033509634 -0.033648822 0.002176866 0.016106702 0.08825771 -0.02488707 -0.023482569
-0.019925877 -0.05353936 -0.06529197 -0.008471601 0.022655003 -0.064172044 0.032694332 0.07612499
0.059530623 -0.0053176284 -0.046395566 0.057018287 0.016753003 -0.06820574 0.054776408 0.06640663
0.034612328 0.04924611 0.018851116 0.08169345 0.062003158 0.035995908 -0.03516342 0.044326477
0.035101645 -0.015653677 0.07969763 -0.023162402 0.057496525 0.051633738 -0.040231075 -0.029323447
-0.017709337 -0.062431864 -0.045461453 -0.030118905 -0.053686876 0.01581391 -0.044386372 -0.042340375
0.082517795 -0.0055228174 -0.068447776 0.0118449405 0.020253755 -0.07734994 0.016270928 -0.04182686
-0.052018777 -0.07916987 0.049885772 -0.0747889 0.023169547 0.07715977 0.054032527 0.041101165
-0.06168028 0.06441911 -0.038402162 -0.05411497 0.020045295 -0.002890505 -0.067523845 0.0019984245
0.045140676 -0.07957771 -0.03291769 0.05631245 -0.085812435 -0.043984134 0.086263426 -0.05086505
0.0015292689 -0.019822285 -0.049384326 0.031125449 -0.005855091 -0.019972973 -0.086788796 0.00051077455
-0.07563019 -0.08578725 0.002230361 -0.049020756 -0.04675668 0.0011230856 0.05301834 -0.08253844
-0.043371562 0.029344298 0.0736079 -0.06636119 0.08702091 0.06729206 -0.018896095 -0.029247362
0.03914132 0.024599068 0.05954098 0.045722403 0.07217727 0.008055113 -0.044294767 0.02437289
0.06884553 -0.06532884 0.07602473 0.04015062 0.039173745 0.0061680675 -0.08165952 -0.018787518
-0.017222568 0.035575815 0.07939301 0.05091954 -0.04028126 0.025874667 -0.03753651 0.071455546
-0.08496267 0.078926615 -0.04595572 0.07128201 -0.08283866 -0.022987776 -0.024986751 0.0523305
0.02838765 0.072523825 -0.0058344826 -0.012315638 -0.078507595 -0.0064840615 0.065873004 -0.060716223
-0.037550103 0.0055528358 -0.012089349 -0.053718917 -0.030375656 0.08140867 0.042086877 0.042663388
0.084014244 0.055644877 0.024476908 -0.050709274 -0.05892928 -0.04785407 -0.030694254 -0.0739509
0.077955686 -0.083341695 -0.042810533 0.01575704 0.053854354 -0.06412794 0.08660143 0.034121364
-0.039389517 -0.059840906 -0.017912842 -0.03899159 -0.0873631 -0.041336764 0.043090932 0.016432837
-0.014172383 0.012049824 0.031030796 0.018456012 0.050850846 0.075977884 -0.022132099 0.06026221
-0.0016883537 0.044862665 0.019160233 -0.036565572 0.07639714 -0.070916265 -0.024088375 -0.038175024
-0.044096615 0.08514226 -0.078915104 -0.03559695 -0.06364167 0.08273495 0.018819034 0.05151964

layer_3.bias f4 [64]
00000000: 0924 25bd 922a e9bc 0666 a1bd 633d b13d
00000010: 0149 64bd b44f b0bd b196 93bd a854 e2bc
00000020: 7027 7ebd 18df da3c 5c24 fe3c a049 a4bb
00000030: a5b4 9f3d a012 ce3c 9572 a63d f77c 36bd
00000040: b616 743d 894c 3dbd 0d3d 7dbd b092 d93b
00000050: 5472 f43c 0021 ef3c 31ad a2bd 4ef4 193d
00000060: 9ba0 b33d 607b df3b 6e95 5d3d 611d 993d
00000070: 5a90 363d 42d8 523d 5880 1b3c d866 143c
00000080: 67a1 90bd 65d0 913d fe53 773d 4a16 88bd
00000090: 161c 043d 4e77 4d3d c058 05bd e038 7f3b
000000a0: 740f 053d 57b3 9ebd 6896 1b3c f0c5 d4bc
000000b0: 7b0f 43bd ad11 823d b14a 49bd 2a27 42bd
000000c0: d849 3ebd 3009 493c a752 903d 16e5 79bd
000000d0: 38ae 8f3c f914 30bd b130 973d 5456 89bd
000000e0: 42a2 5a3d 59b6 a63d 28f7 7bbc ff21 af3d
000000f0: 48d6 053c ad9a 9f3d c66c 713d 7271 ecbc
-0.04031757 -0.028462682 -0.078807876 0.08654287 -0.055733684 -0.08608952 -0.072064765 -0.027628258
-0.06204933 0.026717708 0.031023197 -0.0050136596 0.07798127 0.025155365 0.081273235 -0.04455277
0.05959197 -0.046215568 -0.0618258 0.006639801 0.029839672 0.02919054 -0.0794319 0.037586503
0.087708674 0.0068201274 0.054097585 0.07476307 0.044571258 0.05147577 0.009491049 0.009057723
-0.07062035 0.07119826 0.060382836 -0.06644876 0.032253347 0.050162606 -0.03255534 0.0038943812
0.03248544 -0.0774905 0.009496309 -0.02597329 -0.047622185 0.06351028 -0.049143497 -0.04740063
-0.04645714 0.012270257 0.07047015 -0.06100949 0.017539129 -0.04298875 0.07382334 -0.06705919
0.053377397 0.08140249 -0.015378751 0.08551406 0.008168764 0.07793174 0.058941625 -0.028862689

layer_out.weight f4 [16, 122]
00000000: 6f3d 51c0 4dce 67c0 f8ae efbf cbda 8240
00000010: 324e 7ebf a6d4 4ac0 e1b1 6e3c e267 dabf
00000020: 71fb 9c3e e24b f8be 984d 89be 9f6a 2ac0
00000030: 3512 e7bc 2854 e8bf 4cc4 1dbf cc43 1abd
00000040: 13d5 f53f 6f4f 39c0 0b59 c5bf 1d36 c0bf
00000050: 213e 9dbf 5e41 28c0 285c ebbf 312d 84bf
00000060: 07fc b7bf 2547 f53e 3fd1 a3bf bd8c efbf
00000070: e0b0 723e 3d34 aebf 335c 1dc0 0ccf 3abf
00000080: c88f e9bf 7d66 53c0 ffce f2be 16fe c4be
00000090: d47c 7fbf abe7 81bf 9346 abbf de0f f1be
000000a0: daf1 9fbe 15e8 e73e 218b 5a3e 9834 84bf
000000b0: 5386 293f 802f a73e 2223 a03d 8137 1f3f
000000c0: 7e37 d7bf dfb3 ac3e 7a41 a63d 722b babf
000000d0: 11a1 7ec0 58eb e8bf 2622 d5bf 0b82 d2be
000000e0: 5ab1 01bf 0864 bfbf 5f38 ecbe ee76 82be
000000f0: c0e4 19c0 e9be a4bf 11fc bb3e 87fc cdbe
00000100: fb67 87bf 530a 61c0 e0a6 55bf 10e0 afc0
00000110: 6dc7 fdbf 50ac 69bd 1f57 2f3f 1fa9 29c0
00000120: 408b f03d 13ea e7bf 450e adbd a645 e8be
00000130: 1cc5 d3bd 2564 67be e493 94be 2bee 8ebf
00000140: 54b3 56bf 6665 afbf 6ebb adbd 1179 03bf
00000150: 18f3 a1be eb66 12c0 3f64 9b3e 5ae7 073f
00000160: 9329 ffbe 6299 58c0 1fe1 45c0 4a2a 46bf
00000170: dbca 60be 1c6a 13c0 9a73 96c0 d091 2c3f
00000180: 51b8 083f a792 0ebe 7755 253a 2840 a2bf
00000190: 4909 67bf 486e 96be 76cd 86bf 3276 29c0
000001a0: a5bc 6ebf c80a dabe 3f44 f5be 651b d2bf
000001b0: e2c3 a23e 9022 d33d 8043 8abf 98e5 57c0
000001c0: 3c39 a1bf 2a3a 5bbf d11f 49bc 8fd0 74be
000001d0: 072c 4bc0 d609 8dbf f10a 33be 5783 8c3e
000001e0: e30d a9be 4922 eebd f63c 60bf 0f09 13bf
000001f0: ff0e 16c0 e6a6 8abf 37bd 0f3e 5aa0 05c0
00000200: 655b 8bbe c875 73c0 afbe 173f a15a 29c0
00000210: 1e08 09c0 ed7f e43d 13a7 06c0 22c2 59be
00000220: 3c24 39c0 7931 bfbf 36e2 39c0 0af8 21c0
00000230: fc2e b83f f3d9 c7bf 65ce d8be 31da 61c0
00000240: 2d75 9abf 41b6 b4bf b98a c8bf 5732 e2bf
00000250: 9099 29c0 f270 b1bf 2614 1dbf f200 56bf
00000260: eddf ebbe 3434 51c0 5518 b93e 34f0 663e
00000270: 2380 12c0 0d76 b13f 03bd 55be efbe d9be
00000280: 7b70 bd3e f865 7cc0 3a91 c4bf 332e 08c0
00000290: aceb 37c0 c183 c0bc 70d0 bdbf 48fb f4bf
000002a0: a094 18bf ebcc 7ac0 0333 f2bf e31b acbf
000002b0: 1b23 debf a74d 4cc0 1ace 5bc0 894f c8be
000002c0: 93fd d1bf 3190 a23d c9ac 57c0 6064 28c0
000002d0: 1bbd 20c0 56d9 42bd 2eb6 0f3f a521 423e
000002e0: e786 d2be 8472 a5be 9166 d3c0 ee9e 3cbf
000002f0: d2fa 3dbf 4572 973d 6e4b 2bc0 f49e 29be
00000300: db1c 86c0 0e47 423e d016 103e 9e0d 73bf
00000310: 82b6 9ebf fe6d c1bf cc46 56c0 fb4f 4cc0
00000320: ef69 fcbf a0c7 ecbe 4b1b 4dbf 79d7 d73d
00000330: ad3f 1abf c8df 06bf d0a0 3bc0 bf3d fbbf
00000340: c9fc 7fc0 dd99 9dbf 38e9 ec3d c0a9 e8be
00000350: 9f3c bfbf e1e0 39bf 2484 3fc0 42b5 b33e
00000360: 77f4 45be 669b b6be 60ba 86c0 2e83 49c0
00000370: 0070 5bbe 39a6 b2c0 9eed 3fbf b039 21bf
00000380: c4d7 05c0 8fd8 29c0 938d 6e3e a64d 91bf
00000390: 6784 83bf 27c1 773d 7df9 1abf 4b34 91bf
000003a0: ca15 3bc0 3241 b0be aaef d33e 9f05 41bf
000003b0: 9573 89bf f5d6 a7c0 8df1 14c0 0b4e 4cbf
000003c0: ff0a 3fbf e655 f2bd 0255 d0be 808a 43c0
000003d0: c32c 26be 81e6 bfbf 005a cbbe e67e 91c0
000003e0: 7d45 94bf 88c9 943e 7a90 c73d 14ca 40c0
000003f0: 228c 76bf cc14 72c0 f3f3 683e 17e3 b6be
-3.2693746 -3.6219666 -1.8725271 4.089208 -0.99338067 -3.169229 0.014568777 -1.7062953
0.30660585 -0.48495394 -0.26817012 -2.6627576 -0.028206924 -1.8150682 -0.6162765 -0.037662312
1.920565 -2.8954732 -1.5417799 -1.5016514 -1.2284585 -2.6289897 -1.8387499 -1.0326291
-1.4373788 0.4790584 -1.2798232 -1.8714825 0.23700285 -1.3609692 -2.4587524 -0.7297218
-1.8247004 -3.3031304 -0.4742355 -0.38475102 -0.9979985 -1.0148824 -1.3380913 -0.47082418
-0.31239206 0.45294252 0.21342136 -1.032855 0.6622059 0.32653427 0.07819201 0.6219407
-1.681381 0.3373098 0.081179574 -1.4544508 -3.9785807 -1.8196821 -1.6651046 -0.4111484
-0.5066124 -1.4952402 -0.46136758 -0.2548136 -2.4045868 -1.2870761 0.3671575 -0.40231726
-1.0578607 -3.5162551 -0.83457756 -5.4961014 -1.9826485 -0.057049096 0.6849231 -2.6509473
0.1174531 -1.8118309 -0.08449987 -0.45365638 -0.1034033 -0.22596796 -0.29019082 -1.1166433
-0.83867383 -1.3702819 -0.08483015 -0.5135661 -0.31630778 -2.2875316 0.3034992 0.5308739
-0.49836406 -3.3843617 -3.0918653 -0.7740828 -0.21952383 -2.3033514 -4.7016115 0.6740999
0.53406245 -0.13923131 0.0006306986 -1.2675829 -0.90248543 -0.29381013 -1.0531452 -2.647839
-0.932566 -0.4258635 -0.4790363 -1.641461 0.31790072 0.10309327 -1.0801849 -3.3733883
-1.2595592 -0.85635626 -0.012275652 -0.23907684 -3.1745622 -1.1018627 -0.17484643 0.27443954
-0.33018407 -0.11627633 -0.8759302 -0.574357 -2.3446653 -1.0832183 0.14037023 -2.087912
-0.27218166 -3.8040638 0.59275335 -2.6461565 -2.1411204 0.111572124 -2.1039474 -0.21265462
-2.8928366 -1.4936973 -2.9044318 -2.530764 1.4389338 -1.5613388 -0.42344967 -3.5289423
-1.2067009 -1.411812 -1.5667335 -1.7671613 -2.6499977 -1.3862593 -0.6135887 -0.8359519
-0.4606928 -3.2688112 0.36151376 0.22552568 -2.2890708 1.3864151 -0.20872883 -0.42528483
0.36999878 -3.9437237 -1.535682 -2.1278198 -2.8737593 -0.023500325 -1.4829235 -1.9139185
-0.59601784 -3.9187572 -1.8921818 -1.344601 -1.7354463 -3.1922395 -3.4344544 -0.3912318
-1.640551 0.079376586 -3.369921 -2.6311264 -2.511542 -0.04757055 0.5613736 0.18958147
-0.41118547 -0.3231393 -6.6062703 -0.7368001 -0.74210846 0.07394842 -2.6764789 -0.16564542
-4.1910224 0.18972418 0.14071202 -0.94942653 -1.2399447 -1.5111692 -3.348071 -3.1923816
-1.9719828 -0.46246052 -0.8011977 0.10539145 -0.6025341 -0.52685213 -2.9316902 -1.9628218
-3.9998038 -1.231258 0.115679204 -0.4544201 -1.4940375 -0.7260876 -2.9924402 0.35099226
-0.19331537 -0.35665435 -4.210251 -3.1486316 -0.21429443 -5.582791 -0.7497195 -0.6297865
-2.0912943 -2.6538427 0.23296194 -1.1351821 -1.0274781 0.06048694 -0.6053694 -1.1344084
-2.923205 -0.3442474 0.41393787 -0.753992 -1.0738398 -5.24499 -2.327243 -0.79806584
-0.74626154 -0.1183279 -0.40689856 -3.0553284 -0.16228013 -1.4992219 -0.39717102 -4.5467405
-1.1583706 0.29060006 0.097443536 -3.0123339 -0.96307576 -3.7825193 0.22749309 -0.3572013

layer_out.bias f4 [16]
00000000: e039 a3ba 4536 12bf c448 af3b 0875 ffbe
00000010: 3510 afbd 5433 f7be 6fc6 e5be 8a8e 793f
00000020: e7e4 0ebf 6d59 3d3f 558e 32bf 3538 96bd
00000030: 28cf 8ebe 09d3 853f 25f7 62bf e41b 41bf
-0.0012453161 -0.5711406 0.0053492505 -0.49893975 -0.08548013 -0.48281348 -0.44877955 0.9748312
-0.5581803 0.7396458 -0.6974843 -0.073349394 -0.27892423 1.0455028 -0.8865836 -0.7543318

batchnorm1.weight f4 [256]
00000000: 0000 803f 0000 803f 0000 803f 0000 803f
00000010: 0000 803f 0000 803f 0000 803f 0000 803f
00000020: 0000 803f 0000 803f 0000 803f 0000 803f
00000030: 0000 803f 0000 803f 0000 803f 0000 803f
00000040: 0000 803f 0000 803f 0000 803f 0000 803f
00000050: 0000 803f 0000 803f 0000 803f 0000 803f
00000060: 0000 803f 0000 803f 0000 803f 0000 803f
00000070: 0000 803f 0000 803f 0000 803f 0000 803f
00000080: 0000 803f 0000 803f 0000 803f 0000 803f
00000090: 0000 803f 0000 803f 0000 803f 0000 803f
000000a0: 0000 803f 0000 803f 0000 803f 0000 803f
000000b0: 0000 803f 0000 803f 0000 803f 0000 803f
000000c0: 0000 803f 0000 803f 0000 803f 0000 803f
000000d0: 0000 803f 0000 803f 0000 803f 0000 803f
000000e0: 0000 803f 0000 803f 0000 803f 0000 803f
000000f0: 0000 803f 0000 803f 0000 803f 0000 803f
00000100: 0000 803f 0000 803f 0000 803f 0000 803f
00000110: 0000 803f 0000 803f 0000 803f 0000 803f
00000120: 0000 803f 0000 803f 0000 803f 0000 803f
00000130: 0000 803f 0000 803f 0000 803f 0000 803f
00000140: 0000 803f 0000 803f 0000 803f 0000 803f
00000150: 0000 803f 0000 803f 0000 803f 0000 803f
00000160: 0000 803f 0000 803f 0000 803f 0000 803f
00000170: 0000 803f 0000 803f 0000 803f 0000 803f
00000180: 0000 803f 0000 803f 0000 803f 0000 803f
00000190: 0000 803f 0000 803f 0000 803f 0000 803f
000001a0: 0000 803f 0000 803f 0000 803f 0000 803f
000001b0: 0000 803f 0000 803f 0000 803f 0000 803f
000001c0: 0000 803f 0000 803f 0000 803f 0000 803f
000001d0: 0000 803f 0000 803f 0000 803f 0000 803f
000001e0: 0000 803f 0000 803f 0000 803f 0000 803f
000001f0: 0000 803f 0000 803f 0000 803f 0000 803f
00000200: 0000 803f 0000 803f 0000 803f 0000 803f
00000210: 0000 803f 0000 803f 0000 803f 0000 803f
00000220: 0000 803f 0000 803f 0000 803f 0000 803f
00000230: 0000 803f 0000 803f 0000 803f 0000 803f
00000240: 0000 803f 0000 803f 0000 803f 0000 803f
00000250: 0000 803f 0000 803f 0000 803f 0000 803f
00000260: 0000 803f 0000 803f 0000 803f 0000 803f
00000270: 0000 803f 0000 803f 0000 803f 0000 803f
00000280: 0000 803f 0000 803f 0000 803f 0000 803f
00000290: 0000 803f 0000 803f 0000 803f 0000 803f
000002a0: 0000 803f 0000 803f 0000 803f 0000 803f
000002b0: 0000 803f 0000 803f 0000 803f 0000 803f
000002c0: 0000 803f 0000 803f 0000 803f 0000 803f
000002d0: 0000 803f 0000 803f 0000 803f 0000 803f
000002e0: 0000 803f 0000 803f 0000 803f 0000 803f
000002f0: 0000 803f 0000 803f 0000 803f 0000 803f
00000300: 0000 803f 0000 803f 0000 803f 0000 803f
00000310: 0000 803f 0000 803f 0000 803f 0000 803f
00000320: 0000 803f 0000 803f 0000 803f 0000 803f
00000330: 0000 803f 0000 803f 0000 803f 0000 803f
00000340: 0000 803f 0000 803f 0000 803f 0000 803f
00000350: 0000 803f 0000 803f 0000 803f 0000 803f
00000360: 0000 803f 0000 803f 0000 803f 0000 803f
00000370: 0000 803f 0000 803f 0000 803f 0000 803f
00000380: 0000 803f 0000 803f 0000 803f 0000 803f
00000390: 0000 803f 0000 803f 0000 803f 0000 803f
000003a0: 0000 803f 0000 803f 0000 803f 0000 803f
000003b0: 0000 803f 0000 803f 0000 803f 0000 803f
000003c0: 0000 803f 0000 803f 0000 803f 0000 803f
000003d0: 0000 803f 0000 803f 0000 803f 0000 803f
000003e0: 0000 803f 0000 803f 0000 803f 0000 803f
000003f0: 0000 803f 0000 803f 0000 803f 0000 803f
1.0 1.0 1.0 1.0 1.0 1.0 1.0 1.0
1.0 1.0 1.0 1.0 1.0 1.0 1.0 1.0
1.0 1.0 1.0 1.0 1.0 1.0 1.0 1.0
1.0 1.0 1.0 1.0 1.0 1.0 1.0 1.0
1.0 1.0 1.0 1.0 1.0 1.0 1.0 1.0
1.0 1.0 1.0 1.0 1.0 1.0 1.0 1.0
1.0 1.0 1.0 1.0 1.0 1.0 1.0 1.0
1.0 1.0 1.0 1.0 1.0 1.0 1.0 1.0
1.0 1.0 1.0 1.0 1.0 1.0 1.0 1.0
1.0 1.0 1.0 1.0 1.0 1.0 1.0 1.0
1.0 1.0 1.0 1.0 1.0 1.0 1.0 1.0
1.0 1.0 1.0 1.0 1.0 1.0 1.0 1.0
1.0 1.0 1.0 1.0 1.0 1.0 1.0 1.0
1.0 1.0 1.0 1.0 1.0 1.0 1.0 1.0
1.0 1.0 1.0 1.0 1.0 1.0 1.0 1.0
1.0 1.0 1.0 1.0 1.0 1.0 1.0 1.0
1.0 1.0 1.0 1.0 1.0 1.0 1.0 1.0
1.0 1.0 1.0 1.0 1.0 1.0 1.0 1.0
1.0 1.0 1.0 1.0 1.0 1.0 1.0 1.0
1.0 1.0 1.0 1.0 1.0 1.0 1.0 1.0
1.0 1.0 1.0 1.0 1.0 1.0 1.0 1.0
1.0 1.0 1.0 1.0 1.0 1.0 1.0 1.0
1.0 1.0 1.0 1.0 1.0 1.0 1.0 1.0
1.0 1.0 1.0 1.0 1.0 1.0 1.0 1.0
1.0 1.0 1.0 1.0 1.0 1.0 1.0 1.0
1.0 1.0 1.0 1.0 1.0 1.0 1.0 1.0
1.0 1.0 1.0 1.0 1.0 1.0 1.0 1.0
1.0 1.0 1.0 1.0 1.0 1.0 1.0 1.0
1.0 1.0 1.0 1.0 1.0 1.0 1.0 1.0
1.0 1.0 1.0 1.0 1.0 1.0 1.0 1.0
1.0 1.0 1.0 1.0 1.0 1.0 1.0 1.0
1.0 1.0 1.0 1.0 1.0 1.0 1.0 1.0

batchnorm1.bias f4 [256]
00000000: 0000 0000 0000 0000 0000 0000 0000 0000
00000010: 0000 0000 0000 0000 0000 0000 0000 0000
00000020: 0000 0000 0000 0000 0000 0000 0000 0000
00000030: 0000 0000 0000 0000 0000 0000 0000 0000
00000040: 0000 0000 0000 0000 0000 0000 0000 0000
00000050: 0000 0000 0000 0000 0000 0000 0000 0000
00000060: 0000 0000 0000 0000 0000 0000 0000 0000
00000070: 0000 0000 0000 0000 0000 0000 0000 0000
00000080: 0000 0000 0000 0000 0000 0000 0000 0000
00000090: 0000 0000 0000 0000 0000 0000 0000 0000
000000a0: 0000 0000 0000 0000 0000 0000 0000 0000
000000b0: 0000 0000 0000 0000 0000 0000 0000 0000
000000c0: 0000 0000 0000 0000 0000 0000 0000 0000
000000d0: 0000 0000 0000 0000 0000 0000 0000 0000
000000e0: 0000 0000 0000 0000 0000 0000 0000 0000
000000f0: 0000 0000 0000 0000 0000 0000 0000 0000
00000100: 0000 0000 0000 0000 0000 0000 0000 0000
00000110: 0000 0000 0000 0000 0000 0000 0000 0000
00000120: 0000 0000 0000 0000 0000 0000 0000 0000
00000130: 0000 0000 0000 0000 0000 0000 0000 0000
00000140: 0000 0000 0000 0000 0000 0000 0000 0000
00000150: 0000 0000 0000 0000 0000 0000 0000 0000
00000160: 0000 0000 0000 0000 0000 0000 0000 0000
00000170: 0000 0000 0000 0000 0000 0000 0000 0000
00000180: 0000 0000 0000 0000 0000 0000 0000 0000
00000190: 0000 0000 0000 0000 0000 0000 0000 0000
000001a0: 0000 0000 0000 0000 0000 0000 0000 0000
000001b0: 0000 0000 0000 0000 0000 0000 0000 0000
000001c0: 0000 0000 0000 0000 0000 0000 0000 0000
000001d0: 0000 0000 0000 0000 0000 0000 0000 0000
000001e0: 0000 0000 0000 0000 0000 0000 0000 0000
000001f0: 0000 0000 0000 0000 0000 0000 0000 0000
00000200: 0000 0000 0000 0000 0000 0000 0000 0000
00000210: 0000 0000 0000 0000 0000 0000 0000 0000
00000220: 0000 0000 0000 0000 0000 0000 0000 0000
00000230: 0000 0000 0000 0000 0000 0000 0000 0000
00000240: 0000 0000 0000 0000 0000 0000 0000 0000
00000250: 0000 0000 0000 0000 0000 0000 0000 0000
00000260: 0000 0000 0000 0000 0000 0000 0000 0000
00000270: 0000 0000 0000 0000 0000 0000 0000 0000
00000280: 0000 0000 0000 0000 0000 0000 0000 0000
00000290: 0000 0000 0000 0000 0000 0000 0000 0000
000002a0: 0000 0000 0000 0000 0000 0000 0000 0000
000002b0: 0000 0000 0000 0000 0000 0000 0000 0000
000002c0: 0000 0000 0000 0000 0000 0000 0000 0000
000002d0: 0000 0000 0000 0000 0000 0000 0000 0000
000002e0: 0000 0000 0000 0000 0000 0000 0000 0000
000002f0: 0000 0000 0000 0000 0000 0000 0000 0000
00000300: 0000 0000 0000 0000 0000 0000 0000 0000
00000310: 0000 0000 0000 0000 0000 0000 0000 0000
00000320: 0000 0000 0000 0000 0000 0000 0000 0000
00000330: 0000 0000 0000 0000 0000 0000 0000 0000
00000340: 0000 0000 0000 0000 0000 0000 0000 0000
00000350: 0000 0000 0000 0000 0000 0000 0000 0000
00000360: 0000 0000 0000 0000 0000 0000 0000 0000
00000370: 0000 0000 0000 0000 0000 0000 0000 0000
00000380: 0000 0000 0000 0000 0000 0000 0000 0000
00000390: 0000 0000 0000 0000 0000 0000 0000 0000
000003a0: 0000 0000 0000 0000 0000 0000 0000 0000
000003b0: 0000 0000 0000 0000 0000 0000 0000 0000
000003c0: 0000 0000 0000 0000 0000 0000 0000 0000
000003d0: 0000 0000 0000 0000 0000 0000 0000 0000
000003e0: 0000 0000 0000 0000 0000 0000 0000 0000
000003f0: 0000 0000 0000 0000 0000 0000 0000 0000
0.0 0.0 0.0 0.0 0.0 0.0 0.0 0.0
0.0 0.0 0.0 0.0 0.0 0.0 0.0 0.0
0.0 0.0 0.0 0.0 0.0 0.0 0.0 0.0
0.0 0.0 0.0 0.0 0.0 0.0 0.0 0.0
0.0 0.0 0.0 0.0 0.0 0.0 0.0 0.0
0.0 0.0 0.0 0.0 0.0 0.0 0.0 0.0
0.0 0.0 0.0 0.0 0.0 0.0 0.0 0.0
0.0 0.0 0.0 0.0 0.0 0.0 0.0 0.0
0.0 0.0 0.0 0.0 0.0 0.0 0.0 0.0
0.0 0.0 0.0 0.0 0.0 0.0 0.0 0.0
0.0 0.0 0.0 0.0 0.0 0.0 0.0 0.0
0.0 0.0 0.0 0.0 0.0 0.0 0.0 0.0
0.0 0.0 0.0 0.0 0.0 0.0 0.0 0.0
0.0 0.0 0.0 0.0 0.0 0.0 0.0 0.0
0.0 0.0 0.0 0.0 0.0 0.0 0.0 0.0
0.0 0.0 0.0 0.0 0.0 0.0 0.0 0.0
0.0 0.0 0.0 0.0 0.0 0.0 0.0 0.0
0.0 0.0 0.0 0.0 0.0 0.0 0.0 0.0
0.0 0.0 0.0 0.0 0.0 0.0 0.0 0.0
0.0 0.0 0.0 0.0 0.0 0.0 0.0 0.0
0.0 0.0 0.0 0.0 0.0 0.0 0.0 0.0
0.0 0.0 0.0 0.0 0.0 0.0 0.0 0.0
0.0 0.0 0.0 0.0 0.0 0.0 0.0 0.0
0.0 0.0 0.0 0.0 0.0 0.0 0.0 0.0
0.0 0.0 0.0 0.0 0.0 0.0 0.0 0.0
0.0 0.0 0.0 0.0 0.0 0.0 0.0 0.0
0.0 0.0 0.0 0.0 0.0 0.0 0.0 0.0
0.0 0.0 0.0 0.0 0.0 0.0 0.0 0.0
0.0 0.0 0.0 0.0 0.0 0.0 0.0 0.0
0.0 0.0 0.0 0.0 0.0 0.0 0.0 0.0
0.0 0.0 0.0 0.0 0.0 0.0 0.0 0.0
0.0 0.0 0.0 0.0 0.0 0.0 0.0 0.0

batchnorm1.running_mean f4 [256]
00000000: 0000 0000 0000 0000 0000 0000 0000 0000
00000010: 0000 0000 0000 0000 0000 0000 0000 0000
00000020: 0000 0000 0000 0000 0000 0000 0000 0000
00000030: 0000 0000 0000 0000 0000 0000 0000 0000
00000040: 0000 0000 0000 0000 0000 0000 0000 0000
00000050: 0000 0000 0000 0000 0000 0000 0000 0000
00000060: 0000 0000 0000 0000 0000 0000 0000 0000
00000070: 0000 0000 0000 0000 0000 0000 0000 0000
00000080: 0000 0000 0000 0000 0000 0000 0000 0000
00000090: 0000 0000 0000 0000 0000 0000 0000 0000
000000a0: 0000 0000 0000 0000 0000 0000 0000 0000
000000b0: 0000 0000 0000 0000 0000 0000 0000 0000
000000c0: 0000 0000 0000 0000 0000 0000 0000 0000
000000d0: 0000 0000 0000 0000 0000 0000 0000 0000
000000e0: 0000 0000 0000 0000 0000 0000 0000 0000
000000f0: 0000 0000 0000 0000 0000 0000 0000 0000
00000100: 0000 0000 0000 0000 0000 0000 0000 0000
00000110: 0000 0000 0000 0000 0000 0000 0000 0000
00000120: 0000 0000 0000 0000 0000 0000 0000 0000
00000130: 0000 0000 0000 0000 0000 0000 0000 0000
00000140: 0000 0000 0000 0000 0000 0000 0000 0000
00000150: 0000 0000 0000 0000 0000 0000 0000 0000
00000160: 0000 0000 0000 0000 0000 0000 0000 0000
00000170: 0000 0000 0000 0000 0000 0000 0000 0000
00000180: 0000 0000 0000 0000 0000 0000 0000 0000
00000190: 0000 0000 0000 0000 0000 0000 0000 0000
000001a0: 0000 0000 0000 0000 0000 0000 0000 0000
000001b0: 0000 0000 0000 0000 0000 0000 0000 0000
000001c0: 0000 0000 0000 0000 0000 0000 0000 0000
000001d0: 0000 0000 0000 0000 0000 0000 0000 0000
000001e0: 0000 0000 0000 0000 0000 0000 0000 0000
000001f0: 0000 0000 0000 0000 0000 0000 0000 0000
00000200: 0000 0000 0000 0000 0000 0000 0000 0000
00000210: 0000 0000 0000 0000 0000 0000 0000 0000
00000220: 0000 0000 0000 0000 0000 0000 0000 0000
00000230: 0000 0000 0000 0000 0000 0000 0000 0000
00000240: 0000 0000 0000 0000 0000 0000 0000 0000
00000250: 0000 0000 0000 0000 0000 0000 0000 0000
00000260: 0000 0000 0000 0000 0000 0000 0000 0000
00000270: 0000 0000 0000 0000 0000 0000 0000 0000
00000280: 0000 0000 0000 0000 0000 0000 0000 0000
00000290: 0000 0000 0000 0000 0000 0000 0000 0000
000002a0: 0000 0000 0000 0000 0000 0000 0000 0000
000002b0: 0000 0000 0000 0000 0000 0000 0000 0000
000002c0: 0000 0000 0000 0000 0000 0000 0000 0000
000002d0: 0000 0000 0000 0000 0000 0000 0000 0000
000002e0: 0000 0000 0000 0000 0000 0000 0000 0000
000002f0: 0000 0000 0000 0000 0000 0000 0000 0000
00000300: 0000 0000 0000 0000 0000 0000 0000 0000
00000310: 0000 0000 0000 0000 0000 0000 0000 0000
00000320: 0000 0000 0000 0000 0000 0000 0000 0000
00000330: 0000 0000 0000 0000 0000 0000 0000 0000
00000340: 0000 0000 0000 0000 0000 0000 0000 0000
00000350: 0000 0000 0000 0000 0000 0000 0000 0000
00000360: 0000 0000 0000 0000 0000 0000 0000 0000
00000370: 0000 0000 0000 0000 0000 0000 0000 0000
00000380: 0000 0000 0000 0000 0000 0000 0000 0000
00000390: 0000 0000 0000 0000 0000 0000 0000 0000
000003a0: 0000 0000 0000 0000 0000 0000 0000 0000
000003b0: 0000 0000 0000 0000 0000 0000 0000 0000
000003c0: 0000 0000 0000 0000 0000 0000 0000 0000
000003d0: 0000 0000 0000 0000 0000 0000 0000 0000
000003e0: 0000 0000 0000 0000 0000 0000 0000 0000
000003f0: 0000 0000 0000 0000 0000 0000 0000 0000
0.0 0.0 0.0 0.0 0.0 0.0 0.0 0.0
0.0 0.0 0.0 0.0 0.0 0.0 0.0 0.0
0.0 0.0 0.0 0.0 0.0 0.0 0.0 0.0
0.0 0.0 0.0 0.0 0.0 0.0 0.0 0.0
0.0 0.0 0.0 0.0 0.0 0.0 0.0 0.0
0.0 0.0 0.0 0.0 0.0 0.0 0.0 0.0
0.0 0.0 0.0 0.0 0.0 0.0 0.0 0.0
0.0 0.0 0.0 0.0 0.0 0.0 0.0 0.0
0.0 0.0 0.0 0.0 0.0 0.0 0.0 0.0
0.0 0.0 0.0 0.0 0.0 0.0 0.0 0.0
0.0 0.0 0.0 0.0 0.0 0.0 0.0 0.0
0.0 0.0 0.0 0.0 0.0 0.0 0.0 0.0
0.0 0.0 0.0 0.0 0.0 0.0 0.0 0.0
0.0 0.0 0.0 0.0 0.0 0.0 0.0 0.0
0.0 0.0 0.0 0.0 0.0 0.0 0.0 0.0
0.0 0.0 0.0 0.0 0.0 0.0 0.0 0.0
0.0 0.0 0.0 0.0 0.0 0.0 0.0 0.0
0.0 0.0 0.0 0.0 0.0 0.0 0.0 0.0
0.0 0.0 0.0 0.0 0.0 0.0 0.0 0.0
0.0 0.0 0.0 0.0 0.0 0.0 0.0 0.0
0.0 0.0 0.0 0.0 0.0 0.0 0.0 0.0
0.0 0.0 0.0 0.0 0.0 0.0 0.0 0.0
0.0 0.0 0.0 0.0 0.0 0.0 0.0 0.0
0.0 0.0 0.0 0.0 0.0 0.0 0.0 0.0
0.0 0.0 0.0 0.0 0.0 0.0 0.0 0.0
0.0 0.0 0.0 0.0 0.0 0.0 0.0 0.0
0.0 0.0 0.0 0.0 0.0 0.0 0.0 0.0
0.0 0.0 0.0 0.0 0.0 0.0 0.0 0.0
0.0 0.0 0.0 0.0 0.0 0.0 0.0 0.0
0.0 0.0 0.0 0.0 0.0 0.0 0.0 0.0
0.0 0.0 0.0 0.0 0.0 0.0 0.0 0.0
0.0 0.0 0.0 0.0 0.0 0.0 0.0 0.0
